{"modelTopology": {"keras_version": "2.2.0", "backend": "tensorflow", "model_config": {"class_name": "Model", "config": {"name": "mobilenetV2_1.00_64", "layers": [{"name": "input_1", "class_name": "InputLayer", "config": {"batch_input_shape": [null, 64, 64, 1], "dtype": "float32", "sparse": false, "name": "input_1"}, "inbound_nodes": []}, {"name": "conv1", "class_name": "Conv2D", "config": {"name": "conv1", "trainable": true, "filters": 32, "kernel_size": [3, 3], "strides": [2, 2], "padding": "same", "data_format": "channels_last", "dilation_rate": [1, 1], "activation": "linear", "use_bias": false, "kernel_initializer": {"class_name": "VarianceScaling", "config": {"scale": 1.0, "mode": "fan_avg", "distribution": "uniform", "seed": null}}, "bias_initializer": {"class_name": "Zeros", "config": {}}, "kernel_regularizer": null, "bias_regularizer": null, "activity_regularizer": null, "kernel_constraint": null, "bias_constraint": null}, "inbound_nodes": [[["input_1", 0, 0, {}]]]}, {"name": "conv1_bn", "class_name": "BatchNormalization", "config": {"name": "conv1_bn", "trainable": true, "axis": -1, "momentum": 0.99, "epsilon": 0.001, "center": true, "scale": true, "beta_initializer": {"class_name": "Zeros", "config": {}}, "gamma_initializer": {"class_name": "Ones", "config": {}}, "moving_mean_initializer": {"class_name": "Zeros", "config": {}}, "moving_variance_initializer": {"class_name": "Ones", "config": {}}, "beta_regularizer": null, "gamma_regularizer": null, "beta_constraint": null, "gamma_constraint": null}, "inbound_nodes": [[["conv1", 0, 0, {}]]]}, {"name": "conv1_relu", "class_name": "Activation", "config": {"name": "conv1_relu", "trainable": true, "activation": "relu6"}, "inbound_nodes": [[["conv1_bn", 0, 0, {}]]]}, {"name": "conv_dw_1", "class_name": "DepthwiseConv2D", "config": {"name": "conv_dw_1", "trainable": true, "kernel_size": [3, 3], "strides": [1, 1], "padding": "same", "data_format": "channels_last", "dilation_rate": [1, 1], "activation": "linear", "use_bias": false, "bias_initializer": {"class_name": "Zeros", "config": {}}, "bias_regularizer": null, "activity_regularizer": null, "bias_constraint": null, "depth_multiplier": 1, "depthwise_initializer": {"class_name": "VarianceScaling", "config": {"scale": 1.0, "mode": "fan_avg", "distribution": "uniform", "seed": null}}, "depthwise_regularizer": null, "depthwise_constraint": null}, "inbound_nodes": [[["conv1_relu", 0, 0, {}]]]}, {"name": "conv_dw_1_bn", "class_name": "BatchNormalization", "config": {"name": "conv_dw_1_bn", "trainable": true, "axis": -1, "momentum": 0.999, "epsilon": 0.001, "center": true, "scale": true, "beta_initializer": {"class_name": "Zeros", "config": {}}, "gamma_initializer": {"class_name": "Ones", "config": {}}, "moving_mean_initializer": {"class_name": "Zeros", "config": {}}, "moving_variance_initializer": {"class_name": "Ones", "config": {}}, "beta_regularizer": null, "gamma_regularizer": null, "beta_constraint": null, "gamma_constraint": null}, "inbound_nodes": [[["conv_dw_1", 0, 0, {}]]]}, {"name": "conv_dw_1_relu", "class_name": "Activation", "config": {"name": "conv_dw_1_relu", "trainable": true, "activation": "relu6"}, "inbound_nodes": [[["conv_dw_1_bn", 0, 0, {}]]]}, {"name": "conv_pw_1", "class_name": "Conv2D", "config": {"name": "conv_pw_1", "trainable": true, "filters": 16, "kernel_size": [1, 1], "strides": [1, 1], "padding": "same", "data_format": "channels_last", "dilation_rate": [1, 1], "activation": "linear", "use_bias": false, "kernel_initializer": {"class_name": "VarianceScaling", "config": {"scale": 1.0, "mode": "fan_avg", "distribution": "uniform", "seed": null}}, "bias_initializer": {"class_name": "Zeros", "config": {}}, "kernel_regularizer": null, "bias_regularizer": null, "activity_regularizer": null, "kernel_constraint": null, "bias_constraint": null}, "inbound_nodes": [[["conv_dw_1_relu", 0, 0, {}]]]}, {"name": "conv_pw_1_bn", "class_name": "BatchNormalization", "config": {"name": "conv_pw_1_bn", "trainable": true, "axis": -1, "momentum": 0.999, "epsilon": 0.001, "center": true, "scale": true, "beta_initializer": {"class_name": "Zeros", "config": {}}, "gamma_initializer": {"class_name": "Ones", "config": {}}, "moving_mean_initializer": {"class_name": "Zeros", "config": {}}, "moving_variance_initializer": {"class_name": "Ones", "config": {}}, "beta_regularizer": null, "gamma_regularizer": null, "beta_constraint": null, "gamma_constraint": null}, "inbound_nodes": [[["conv_pw_1", 0, 0, {}]]]}, {"name": "conv_expand_2", "class_name": "Conv2D", "config": {"name": "conv_expand_2", "trainable": true, "filters": 96, "kernel_size": [1, 1], "strides": [1, 1], "padding": "same", "data_format": "channels_last", "dilation_rate": [1, 1], "activation": "linear", "use_bias": false, "kernel_initializer": {"class_name": "VarianceScaling", "config": {"scale": 1.0, "mode": "fan_avg", "distribution": "uniform", "seed": null}}, "bias_initializer": {"class_name": "Zeros", "config": {}}, "kernel_regularizer": null, "bias_regularizer": null, "activity_regularizer": null, "kernel_constraint": null, "bias_constraint": null}, "inbound_nodes": [[["conv_pw_1_bn", 0, 0, {}]]]}, {"name": "conv_expand_2_bn", "class_name": "BatchNormalization", "config": {"name": "conv_expand_2_bn", "trainable": true, "axis": -1, "momentum": 0.999, "epsilon": 0.001, "center": true, "scale": true, "beta_initializer": {"class_name": "Zeros", "config": {}}, "gamma_initializer": {"class_name": "Ones", "config": {}}, "moving_mean_initializer": {"class_name": "Zeros", "config": {}}, "moving_variance_initializer": {"class_name": "Ones", "config": {}}, "beta_regularizer": null, "gamma_regularizer": null, "beta_constraint": null, "gamma_constraint": null}, "inbound_nodes": [[["conv_expand_2", 0, 0, {}]]]}, {"name": "conv_expand_2_relu", "class_name": "Activation", "config": {"name": "conv_expand_2_relu", "trainable": true, "activation": "relu6"}, "inbound_nodes": [[["conv_expand_2_bn", 0, 0, {}]]]}, {"name": "conv_dw_2", "class_name": "DepthwiseConv2D", "config": {"name": "conv_dw_2", "trainable": true, "kernel_size": [3, 3], "strides": [2, 2], "padding": "same", "data_format": "channels_last", "dilation_rate": [1, 1], "activation": "linear", "use_bias": false, "bias_initializer": {"class_name": "Zeros", "config": {}}, "bias_regularizer": null, "activity_regularizer": null, "bias_constraint": null, "depth_multiplier": 1, "depthwise_initializer": {"class_name": "VarianceScaling", "config": {"scale": 1.0, "mode": "fan_avg", "distribution": "uniform", "seed": null}}, "depthwise_regularizer": null, "depthwise_constraint": null}, "inbound_nodes": [[["conv_expand_2_relu", 0, 0, {}]]]}, {"name": "conv_dw_2_bn", "class_name": "BatchNormalization", "config": {"name": "conv_dw_2_bn", "trainable": true, "axis": -1, "momentum": 0.999, "epsilon": 0.001, "center": true, "scale": true, "beta_initializer": {"class_name": "Zeros", "config": {}}, "gamma_initializer": {"class_name": "Ones", "config": {}}, "moving_mean_initializer": {"class_name": "Zeros", "config": {}}, "moving_variance_initializer": {"class_name": "Ones", "config": {}}, "beta_regularizer": null, "gamma_regularizer": null, "beta_constraint": null, "gamma_constraint": null}, "inbound_nodes": [[["conv_dw_2", 0, 0, {}]]]}, {"name": "conv_dw_2_relu", "class_name": "Activation", "config": {"name": "conv_dw_2_relu", "trainable": true, "activation": "relu6"}, "inbound_nodes": [[["conv_dw_2_bn", 0, 0, {}]]]}, {"name": "conv_pw_2", "class_name": "Conv2D", "config": {"name": "conv_pw_2", "trainable": true, "filters": 24, "kernel_size": [1, 1], "strides": [1, 1], "padding": "same", "data_format": "channels_last", "dilation_rate": [1, 1], "activation": "linear", "use_bias": false, "kernel_initializer": {"class_name": "VarianceScaling", "config": {"scale": 1.0, "mode": "fan_avg", "distribution": "uniform", "seed": null}}, "bias_initializer": {"class_name": "Zeros", "config": {}}, "kernel_regularizer": null, "bias_regularizer": null, "activity_regularizer": null, "kernel_constraint": null, "bias_constraint": null}, "inbound_nodes": [[["conv_dw_2_relu", 0, 0, {}]]]}, {"name": "conv_pw_2_bn", "class_name": "BatchNormalization", "config": {"name": "conv_pw_2_bn", "trainable": true, "axis": -1, "momentum": 0.999, "epsilon": 0.001, "center": true, "scale": true, "beta_initializer": {"class_name": "Zeros", "config": {}}, "gamma_initializer": {"class_name": "Ones", "config": {}}, "moving_mean_initializer": {"class_name": "Zeros", "config": {}}, "moving_variance_initializer": {"class_name": "Ones", "config": {}}, "beta_regularizer": null, "gamma_regularizer": null, "beta_constraint": null, "gamma_constraint": null}, "inbound_nodes": [[["conv_pw_2", 0, 0, {}]]]}, {"name": "conv_expand_3", "class_name": "Conv2D", "config": {"name": "conv_expand_3", "trainable": true, "filters": 144, "kernel_size": [1, 1], "strides": [1, 1], "padding": "same", "data_format": "channels_last", "dilation_rate": [1, 1], "activation": "linear", "use_bias": false, "kernel_initializer": {"class_name": "VarianceScaling", "config": {"scale": 1.0, "mode": "fan_avg", "distribution": "uniform", "seed": null}}, "bias_initializer": {"class_name": "Zeros", "config": {}}, "kernel_regularizer": null, "bias_regularizer": null, "activity_regularizer": null, "kernel_constraint": null, "bias_constraint": null}, "inbound_nodes": [[["conv_pw_2_bn", 0, 0, {}]]]}, {"name": "conv_expand_3_bn", "class_name": "BatchNormalization", "config": {"name": "conv_expand_3_bn", "trainable": true, "axis": -1, "momentum": 0.999, "epsilon": 0.001, "center": true, "scale": true, "beta_initializer": {"class_name": "Zeros", "config": {}}, "gamma_initializer": {"class_name": "Ones", "config": {}}, "moving_mean_initializer": {"class_name": "Zeros", "config": {}}, "moving_variance_initializer": {"class_name": "Ones", "config": {}}, "beta_regularizer": null, "gamma_regularizer": null, "beta_constraint": null, "gamma_constraint": null}, "inbound_nodes": [[["conv_expand_3", 0, 0, {}]]]}, {"name": "conv_expand_3_relu", "class_name": "Activation", "config": {"name": "conv_expand_3_relu", "trainable": true, "activation": "relu6"}, "inbound_nodes": [[["conv_expand_3_bn", 0, 0, {}]]]}, {"name": "conv_dw_3", "class_name": "DepthwiseConv2D", "config": {"name": "conv_dw_3", "trainable": true, "kernel_size": [3, 3], "strides": [1, 1], "padding": "same", "data_format": "channels_last", "dilation_rate": [1, 1], "activation": "linear", "use_bias": false, "bias_initializer": {"class_name": "Zeros", "config": {}}, "bias_regularizer": null, "activity_regularizer": null, "bias_constraint": null, "depth_multiplier": 1, "depthwise_initializer": {"class_name": "VarianceScaling", "config": {"scale": 1.0, "mode": "fan_avg", "distribution": "uniform", "seed": null}}, "depthwise_regularizer": null, "depthwise_constraint": null}, "inbound_nodes": [[["conv_expand_3_relu", 0, 0, {}]]]}, {"name": "conv_dw_3_bn", "class_name": "BatchNormalization", "config": {"name": "conv_dw_3_bn", "trainable": true, "axis": -1, "momentum": 0.999, "epsilon": 0.001, "center": true, "scale": true, "beta_initializer": {"class_name": "Zeros", "config": {}}, "gamma_initializer": {"class_name": "Ones", "config": {}}, "moving_mean_initializer": {"class_name": "Zeros", "config": {}}, "moving_variance_initializer": {"class_name": "Ones", "config": {}}, "beta_regularizer": null, "gamma_regularizer": null, "beta_constraint": null, "gamma_constraint": null}, "inbound_nodes": [[["conv_dw_3", 0, 0, {}]]]}, {"name": "conv_dw_3_relu", "class_name": "Activation", "config": {"name": "conv_dw_3_relu", "trainable": true, "activation": "relu6"}, "inbound_nodes": [[["conv_dw_3_bn", 0, 0, {}]]]}, {"name": "conv_pw_3", "class_name": "Conv2D", "config": {"name": "conv_pw_3", "trainable": true, "filters": 24, "kernel_size": [1, 1], "strides": [1, 1], "padding": "same", "data_format": "channels_last", "dilation_rate": [1, 1], "activation": "linear", "use_bias": false, "kernel_initializer": {"class_name": "VarianceScaling", "config": {"scale": 1.0, "mode": "fan_avg", "distribution": "uniform", "seed": null}}, "bias_initializer": {"class_name": "Zeros", "config": {}}, "kernel_regularizer": null, "bias_regularizer": null, "activity_regularizer": null, "kernel_constraint": null, "bias_constraint": null}, "inbound_nodes": [[["conv_dw_3_relu", 0, 0, {}]]]}, {"name": "conv_pw_3_bn", "class_name": "BatchNormalization", "config": {"name": "conv_pw_3_bn", "trainable": true, "axis": -1, "momentum": 0.999, "epsilon": 0.001, "center": true, "scale": true, "beta_initializer": {"class_name": "Zeros", "config": {}}, "gamma_initializer": {"class_name": "Ones", "config": {}}, "moving_mean_initializer": {"class_name": "Zeros", "config": {}}, "moving_variance_initializer": {"class_name": "Ones", "config": {}}, "beta_regularizer": null, "gamma_regularizer": null, "beta_constraint": null, "gamma_constraint": null}, "inbound_nodes": [[["conv_pw_3", 0, 0, {}]]]}, {"name": "add_1", "class_name": "Add", "config": {"name": "add_1", "trainable": true}, "inbound_nodes": [[["conv_pw_2_bn", 0, 0, {}], ["conv_pw_3_bn", 0, 0, {}]]]}, {"name": "conv_expand_4", "class_name": "Conv2D", "config": {"name": "conv_expand_4", "trainable": true, "filters": 144, "kernel_size": [1, 1], "strides": [1, 1], "padding": "same", "data_format": "channels_last", "dilation_rate": [1, 1], "activation": "linear", "use_bias": false, "kernel_initializer": {"class_name": "VarianceScaling", "config": {"scale": 1.0, "mode": "fan_avg", "distribution": "uniform", "seed": null}}, "bias_initializer": {"class_name": "Zeros", "config": {}}, "kernel_regularizer": null, "bias_regularizer": null, "activity_regularizer": null, "kernel_constraint": null, "bias_constraint": null}, "inbound_nodes": [[["add_1", 0, 0, {}]]]}, {"name": "conv_expand_4_bn", "class_name": "BatchNormalization", "config": {"name": "conv_expand_4_bn", "trainable": true, "axis": -1, "momentum": 0.999, "epsilon": 0.001, "center": true, "scale": true, "beta_initializer": {"class_name": "Zeros", "config": {}}, "gamma_initializer": {"class_name": "Ones", "config": {}}, "moving_mean_initializer": {"class_name": "Zeros", "config": {}}, "moving_variance_initializer": {"class_name": "Ones", "config": {}}, "beta_regularizer": null, "gamma_regularizer": null, "beta_constraint": null, "gamma_constraint": null}, "inbound_nodes": [[["conv_expand_4", 0, 0, {}]]]}, {"name": "conv_expand_4_relu", "class_name": "Activation", "config": {"name": "conv_expand_4_relu", "trainable": true, "activation": "relu6"}, "inbound_nodes": [[["conv_expand_4_bn", 0, 0, {}]]]}, {"name": "conv_dw_4", "class_name": "DepthwiseConv2D", "config": {"name": "conv_dw_4", "trainable": true, "kernel_size": [3, 3], "strides": [2, 2], "padding": "same", "data_format": "channels_last", "dilation_rate": [1, 1], "activation": "linear", "use_bias": false, "bias_initializer": {"class_name": "Zeros", "config": {}}, "bias_regularizer": null, "activity_regularizer": null, "bias_constraint": null, "depth_multiplier": 1, "depthwise_initializer": {"class_name": "VarianceScaling", "config": {"scale": 1.0, "mode": "fan_avg", "distribution": "uniform", "seed": null}}, "depthwise_regularizer": null, "depthwise_constraint": null}, "inbound_nodes": [[["conv_expand_4_relu", 0, 0, {}]]]}, {"name": "conv_dw_4_bn", "class_name": "BatchNormalization", "config": {"name": "conv_dw_4_bn", "trainable": true, "axis": -1, "momentum": 0.999, "epsilon": 0.001, "center": true, "scale": true, "beta_initializer": {"class_name": "Zeros", "config": {}}, "gamma_initializer": {"class_name": "Ones", "config": {}}, "moving_mean_initializer": {"class_name": "Zeros", "config": {}}, "moving_variance_initializer": {"class_name": "Ones", "config": {}}, "beta_regularizer": null, "gamma_regularizer": null, "beta_constraint": null, "gamma_constraint": null}, "inbound_nodes": [[["conv_dw_4", 0, 0, {}]]]}, {"name": "conv_dw_4_relu", "class_name": "Activation", "config": {"name": "conv_dw_4_relu", "trainable": true, "activation": "relu6"}, "inbound_nodes": [[["conv_dw_4_bn", 0, 0, {}]]]}, {"name": "conv_pw_4", "class_name": "Conv2D", "config": {"name": "conv_pw_4", "trainable": true, "filters": 32, "kernel_size": [1, 1], "strides": [1, 1], "padding": "same", "data_format": "channels_last", "dilation_rate": [1, 1], "activation": "linear", "use_bias": false, "kernel_initializer": {"class_name": "VarianceScaling", "config": {"scale": 1.0, "mode": "fan_avg", "distribution": "uniform", "seed": null}}, "bias_initializer": {"class_name": "Zeros", "config": {}}, "kernel_regularizer": null, "bias_regularizer": null, "activity_regularizer": null, "kernel_constraint": null, "bias_constraint": null}, "inbound_nodes": [[["conv_dw_4_relu", 0, 0, {}]]]}, {"name": "conv_pw_4_bn", "class_name": "BatchNormalization", "config": {"name": "conv_pw_4_bn", "trainable": true, "axis": -1, "momentum": 0.999, "epsilon": 0.001, "center": true, "scale": true, "beta_initializer": {"class_name": "Zeros", "config": {}}, "gamma_initializer": {"class_name": "Ones", "config": {}}, "moving_mean_initializer": {"class_name": "Zeros", "config": {}}, "moving_variance_initializer": {"class_name": "Ones", "config": {}}, "beta_regularizer": null, "gamma_regularizer": null, "beta_constraint": null, "gamma_constraint": null}, "inbound_nodes": [[["conv_pw_4", 0, 0, {}]]]}, {"name": "conv_expand_5", "class_name": "Conv2D", "config": {"name": "conv_expand_5", "trainable": true, "filters": 192, "kernel_size": [1, 1], "strides": [1, 1], "padding": "same", "data_format": "channels_last", "dilation_rate": [1, 1], "activation": "linear", "use_bias": false, "kernel_initializer": {"class_name": "VarianceScaling", "config": {"scale": 1.0, "mode": "fan_avg", "distribution": "uniform", "seed": null}}, "bias_initializer": {"class_name": "Zeros", "config": {}}, "kernel_regularizer": null, "bias_regularizer": null, "activity_regularizer": null, "kernel_constraint": null, "bias_constraint": null}, "inbound_nodes": [[["conv_pw_4_bn", 0, 0, {}]]]}, {"name": "conv_expand_5_bn", "class_name": "BatchNormalization", "config": {"name": "conv_expand_5_bn", "trainable": true, "axis": -1, "momentum": 0.999, "epsilon": 0.001, "center": true, "scale": true, "beta_initializer": {"class_name": "Zeros", "config": {}}, "gamma_initializer": {"class_name": "Ones", "config": {}}, "moving_mean_initializer": {"class_name": "Zeros", "config": {}}, "moving_variance_initializer": {"class_name": "Ones", "config": {}}, "beta_regularizer": null, "gamma_regularizer": null, "beta_constraint": null, "gamma_constraint": null}, "inbound_nodes": [[["conv_expand_5", 0, 0, {}]]]}, {"name": "conv_expand_5_relu", "class_name": "Activation", "config": {"name": "conv_expand_5_relu", "trainable": true, "activation": "relu6"}, "inbound_nodes": [[["conv_expand_5_bn", 0, 0, {}]]]}, {"name": "conv_dw_5", "class_name": "DepthwiseConv2D", "config": {"name": "conv_dw_5", "trainable": true, "kernel_size": [3, 3], "strides": [1, 1], "padding": "same", "data_format": "channels_last", "dilation_rate": [1, 1], "activation": "linear", "use_bias": false, "bias_initializer": {"class_name": "Zeros", "config": {}}, "bias_regularizer": null, "activity_regularizer": null, "bias_constraint": null, "depth_multiplier": 1, "depthwise_initializer": {"class_name": "VarianceScaling", "config": {"scale": 1.0, "mode": "fan_avg", "distribution": "uniform", "seed": null}}, "depthwise_regularizer": null, "depthwise_constraint": null}, "inbound_nodes": [[["conv_expand_5_relu", 0, 0, {}]]]}, {"name": "conv_dw_5_bn", "class_name": "BatchNormalization", "config": {"name": "conv_dw_5_bn", "trainable": true, "axis": -1, "momentum": 0.999, "epsilon": 0.001, "center": true, "scale": true, "beta_initializer": {"class_name": "Zeros", "config": {}}, "gamma_initializer": {"class_name": "Ones", "config": {}}, "moving_mean_initializer": {"class_name": "Zeros", "config": {}}, "moving_variance_initializer": {"class_name": "Ones", "config": {}}, "beta_regularizer": null, "gamma_regularizer": null, "beta_constraint": null, "gamma_constraint": null}, "inbound_nodes": [[["conv_dw_5", 0, 0, {}]]]}, {"name": "conv_dw_5_relu", "class_name": "Activation", "config": {"name": "conv_dw_5_relu", "trainable": true, "activation": "relu6"}, "inbound_nodes": [[["conv_dw_5_bn", 0, 0, {}]]]}, {"name": "conv_pw_5", "class_name": "Conv2D", "config": {"name": "conv_pw_5", "trainable": true, "filters": 32, "kernel_size": [1, 1], "strides": [1, 1], "padding": "same", "data_format": "channels_last", "dilation_rate": [1, 1], "activation": "linear", "use_bias": false, "kernel_initializer": {"class_name": "VarianceScaling", "config": {"scale": 1.0, "mode": "fan_avg", "distribution": "uniform", "seed": null}}, "bias_initializer": {"class_name": "Zeros", "config": {}}, "kernel_regularizer": null, "bias_regularizer": null, "activity_regularizer": null, "kernel_constraint": null, "bias_constraint": null}, "inbound_nodes": [[["conv_dw_5_relu", 0, 0, {}]]]}, {"name": "conv_pw_5_bn", "class_name": "BatchNormalization", "config": {"name": "conv_pw_5_bn", "trainable": true, "axis": -1, "momentum": 0.999, "epsilon": 0.001, "center": true, "scale": true, "beta_initializer": {"class_name": "Zeros", "config": {}}, "gamma_initializer": {"class_name": "Ones", "config": {}}, "moving_mean_initializer": {"class_name": "Zeros", "config": {}}, "moving_variance_initializer": {"class_name": "Ones", "config": {}}, "beta_regularizer": null, "gamma_regularizer": null, "beta_constraint": null, "gamma_constraint": null}, "inbound_nodes": [[["conv_pw_5", 0, 0, {}]]]}, {"name": "add_2", "class_name": "Add", "config": {"name": "add_2", "trainable": true}, "inbound_nodes": [[["conv_pw_4_bn", 0, 0, {}], ["conv_pw_5_bn", 0, 0, {}]]]}, {"name": "conv_expand_6", "class_name": "Conv2D", "config": {"name": "conv_expand_6", "trainable": true, "filters": 192, "kernel_size": [1, 1], "strides": [1, 1], "padding": "same", "data_format": "channels_last", "dilation_rate": [1, 1], "activation": "linear", "use_bias": false, "kernel_initializer": {"class_name": "VarianceScaling", "config": {"scale": 1.0, "mode": "fan_avg", "distribution": "uniform", "seed": null}}, "bias_initializer": {"class_name": "Zeros", "config": {}}, "kernel_regularizer": null, "bias_regularizer": null, "activity_regularizer": null, "kernel_constraint": null, "bias_constraint": null}, "inbound_nodes": [[["add_2", 0, 0, {}]]]}, {"name": "conv_expand_6_bn", "class_name": "BatchNormalization", "config": {"name": "conv_expand_6_bn", "trainable": true, "axis": -1, "momentum": 0.999, "epsilon": 0.001, "center": true, "scale": true, "beta_initializer": {"class_name": "Zeros", "config": {}}, "gamma_initializer": {"class_name": "Ones", "config": {}}, "moving_mean_initializer": {"class_name": "Zeros", "config": {}}, "moving_variance_initializer": {"class_name": "Ones", "config": {}}, "beta_regularizer": null, "gamma_regularizer": null, "beta_constraint": null, "gamma_constraint": null}, "inbound_nodes": [[["conv_expand_6", 0, 0, {}]]]}, {"name": "conv_expand_6_relu", "class_name": "Activation", "config": {"name": "conv_expand_6_relu", "trainable": true, "activation": "relu6"}, "inbound_nodes": [[["conv_expand_6_bn", 0, 0, {}]]]}, {"name": "conv_dw_6", "class_name": "DepthwiseConv2D", "config": {"name": "conv_dw_6", "trainable": true, "kernel_size": [3, 3], "strides": [1, 1], "padding": "same", "data_format": "channels_last", "dilation_rate": [1, 1], "activation": "linear", "use_bias": false, "bias_initializer": {"class_name": "Zeros", "config": {}}, "bias_regularizer": null, "activity_regularizer": null, "bias_constraint": null, "depth_multiplier": 1, "depthwise_initializer": {"class_name": "VarianceScaling", "config": {"scale": 1.0, "mode": "fan_avg", "distribution": "uniform", "seed": null}}, "depthwise_regularizer": null, "depthwise_constraint": null}, "inbound_nodes": [[["conv_expand_6_relu", 0, 0, {}]]]}, {"name": "conv_dw_6_bn", "class_name": "BatchNormalization", "config": {"name": "conv_dw_6_bn", "trainable": true, "axis": -1, "momentum": 0.999, "epsilon": 0.001, "center": true, "scale": true, "beta_initializer": {"class_name": "Zeros", "config": {}}, "gamma_initializer": {"class_name": "Ones", "config": {}}, "moving_mean_initializer": {"class_name": "Zeros", "config": {}}, "moving_variance_initializer": {"class_name": "Ones", "config": {}}, "beta_regularizer": null, "gamma_regularizer": null, "beta_constraint": null, "gamma_constraint": null}, "inbound_nodes": [[["conv_dw_6", 0, 0, {}]]]}, {"name": "conv_dw_6_relu", "class_name": "Activation", "config": {"name": "conv_dw_6_relu", "trainable": true, "activation": "relu6"}, "inbound_nodes": [[["conv_dw_6_bn", 0, 0, {}]]]}, {"name": "conv_pw_6", "class_name": "Conv2D", "config": {"name": "conv_pw_6", "trainable": true, "filters": 32, "kernel_size": [1, 1], "strides": [1, 1], "padding": "same", "data_format": "channels_last", "dilation_rate": [1, 1], "activation": "linear", "use_bias": false, "kernel_initializer": {"class_name": "VarianceScaling", "config": {"scale": 1.0, "mode": "fan_avg", "distribution": "uniform", "seed": null}}, "bias_initializer": {"class_name": "Zeros", "config": {}}, "kernel_regularizer": null, "bias_regularizer": null, "activity_regularizer": null, "kernel_constraint": null, "bias_constraint": null}, "inbound_nodes": [[["conv_dw_6_relu", 0, 0, {}]]]}, {"name": "conv_pw_6_bn", "class_name": "BatchNormalization", "config": {"name": "conv_pw_6_bn", "trainable": true, "axis": -1, "momentum": 0.999, "epsilon": 0.001, "center": true, "scale": true, "beta_initializer": {"class_name": "Zeros", "config": {}}, "gamma_initializer": {"class_name": "Ones", "config": {}}, "moving_mean_initializer": {"class_name": "Zeros", "config": {}}, "moving_variance_initializer": {"class_name": "Ones", "config": {}}, "beta_regularizer": null, "gamma_regularizer": null, "beta_constraint": null, "gamma_constraint": null}, "inbound_nodes": [[["conv_pw_6", 0, 0, {}]]]}, {"name": "add_3", "class_name": "Add", "config": {"name": "add_3", "trainable": true}, "inbound_nodes": [[["add_2", 0, 0, {}], ["conv_pw_6_bn", 0, 0, {}]]]}, {"name": "conv_expand_7", "class_name": "Conv2D", "config": {"name": "conv_expand_7", "trainable": true, "filters": 192, "kernel_size": [1, 1], "strides": [1, 1], "padding": "same", "data_format": "channels_last", "dilation_rate": [1, 1], "activation": "linear", "use_bias": false, "kernel_initializer": {"class_name": "VarianceScaling", "config": {"scale": 1.0, "mode": "fan_avg", "distribution": "uniform", "seed": null}}, "bias_initializer": {"class_name": "Zeros", "config": {}}, "kernel_regularizer": null, "bias_regularizer": null, "activity_regularizer": null, "kernel_constraint": null, "bias_constraint": null}, "inbound_nodes": [[["add_3", 0, 0, {}]]]}, {"name": "conv_expand_7_bn", "class_name": "BatchNormalization", "config": {"name": "conv_expand_7_bn", "trainable": true, "axis": -1, "momentum": 0.999, "epsilon": 0.001, "center": true, "scale": true, "beta_initializer": {"class_name": "Zeros", "config": {}}, "gamma_initializer": {"class_name": "Ones", "config": {}}, "moving_mean_initializer": {"class_name": "Zeros", "config": {}}, "moving_variance_initializer": {"class_name": "Ones", "config": {}}, "beta_regularizer": null, "gamma_regularizer": null, "beta_constraint": null, "gamma_constraint": null}, "inbound_nodes": [[["conv_expand_7", 0, 0, {}]]]}, {"name": "conv_expand_7_relu", "class_name": "Activation", "config": {"name": "conv_expand_7_relu", "trainable": true, "activation": "relu6"}, "inbound_nodes": [[["conv_expand_7_bn", 0, 0, {}]]]}, {"name": "conv_dw_7", "class_name": "DepthwiseConv2D", "config": {"name": "conv_dw_7", "trainable": true, "kernel_size": [3, 3], "strides": [2, 2], "padding": "same", "data_format": "channels_last", "dilation_rate": [1, 1], "activation": "linear", "use_bias": false, "bias_initializer": {"class_name": "Zeros", "config": {}}, "bias_regularizer": null, "activity_regularizer": null, "bias_constraint": null, "depth_multiplier": 1, "depthwise_initializer": {"class_name": "VarianceScaling", "config": {"scale": 1.0, "mode": "fan_avg", "distribution": "uniform", "seed": null}}, "depthwise_regularizer": null, "depthwise_constraint": null}, "inbound_nodes": [[["conv_expand_7_relu", 0, 0, {}]]]}, {"name": "conv_dw_7_bn", "class_name": "BatchNormalization", "config": {"name": "conv_dw_7_bn", "trainable": true, "axis": -1, "momentum": 0.999, "epsilon": 0.001, "center": true, "scale": true, "beta_initializer": {"class_name": "Zeros", "config": {}}, "gamma_initializer": {"class_name": "Ones", "config": {}}, "moving_mean_initializer": {"class_name": "Zeros", "config": {}}, "moving_variance_initializer": {"class_name": "Ones", "config": {}}, "beta_regularizer": null, "gamma_regularizer": null, "beta_constraint": null, "gamma_constraint": null}, "inbound_nodes": [[["conv_dw_7", 0, 0, {}]]]}, {"name": "conv_dw_7_relu", "class_name": "Activation", "config": {"name": "conv_dw_7_relu", "trainable": true, "activation": "relu6"}, "inbound_nodes": [[["conv_dw_7_bn", 0, 0, {}]]]}, {"name": "conv_pw_7", "class_name": "Conv2D", "config": {"name": "conv_pw_7", "trainable": true, "filters": 64, "kernel_size": [1, 1], "strides": [1, 1], "padding": "same", "data_format": "channels_last", "dilation_rate": [1, 1], "activation": "linear", "use_bias": false, "kernel_initializer": {"class_name": "VarianceScaling", "config": {"scale": 1.0, "mode": "fan_avg", "distribution": "uniform", "seed": null}}, "bias_initializer": {"class_name": "Zeros", "config": {}}, "kernel_regularizer": null, "bias_regularizer": null, "activity_regularizer": null, "kernel_constraint": null, "bias_constraint": null}, "inbound_nodes": [[["conv_dw_7_relu", 0, 0, {}]]]}, {"name": "conv_pw_7_bn", "class_name": "BatchNormalization", "config": {"name": "conv_pw_7_bn", "trainable": true, "axis": -1, "momentum": 0.999, "epsilon": 0.001, "center": true, "scale": true, "beta_initializer": {"class_name": "Zeros", "config": {}}, "gamma_initializer": {"class_name": "Ones", "config": {}}, "moving_mean_initializer": {"class_name": "Zeros", "config": {}}, "moving_variance_initializer": {"class_name": "Ones", "config": {}}, "beta_regularizer": null, "gamma_regularizer": null, "beta_constraint": null, "gamma_constraint": null}, "inbound_nodes": [[["conv_pw_7", 0, 0, {}]]]}, {"name": "conv_expand_8", "class_name": "Conv2D", "config": {"name": "conv_expand_8", "trainable": true, "filters": 384, "kernel_size": [1, 1], "strides": [1, 1], "padding": "same", "data_format": "channels_last", "dilation_rate": [1, 1], "activation": "linear", "use_bias": false, "kernel_initializer": {"class_name": "VarianceScaling", "config": {"scale": 1.0, "mode": "fan_avg", "distribution": "uniform", "seed": null}}, "bias_initializer": {"class_name": "Zeros", "config": {}}, "kernel_regularizer": null, "bias_regularizer": null, "activity_regularizer": null, "kernel_constraint": null, "bias_constraint": null}, "inbound_nodes": [[["conv_pw_7_bn", 0, 0, {}]]]}, {"name": "conv_expand_8_bn", "class_name": "BatchNormalization", "config": {"name": "conv_expand_8_bn", "trainable": true, "axis": -1, "momentum": 0.999, "epsilon": 0.001, "center": true, "scale": true, "beta_initializer": {"class_name": "Zeros", "config": {}}, "gamma_initializer": {"class_name": "Ones", "config": {}}, "moving_mean_initializer": {"class_name": "Zeros", "config": {}}, "moving_variance_initializer": {"class_name": "Ones", "config": {}}, "beta_regularizer": null, "gamma_regularizer": null, "beta_constraint": null, "gamma_constraint": null}, "inbound_nodes": [[["conv_expand_8", 0, 0, {}]]]}, {"name": "conv_expand_8_relu", "class_name": "Activation", "config": {"name": "conv_expand_8_relu", "trainable": true, "activation": "relu6"}, "inbound_nodes": [[["conv_expand_8_bn", 0, 0, {}]]]}, {"name": "conv_dw_8", "class_name": "DepthwiseConv2D", "config": {"name": "conv_dw_8", "trainable": true, "kernel_size": [3, 3], "strides": [1, 1], "padding": "same", "data_format": "channels_last", "dilation_rate": [1, 1], "activation": "linear", "use_bias": false, "bias_initializer": {"class_name": "Zeros", "config": {}}, "bias_regularizer": null, "activity_regularizer": null, "bias_constraint": null, "depth_multiplier": 1, "depthwise_initializer": {"class_name": "VarianceScaling", "config": {"scale": 1.0, "mode": "fan_avg", "distribution": "uniform", "seed": null}}, "depthwise_regularizer": null, "depthwise_constraint": null}, "inbound_nodes": [[["conv_expand_8_relu", 0, 0, {}]]]}, {"name": "conv_dw_8_bn", "class_name": "BatchNormalization", "config": {"name": "conv_dw_8_bn", "trainable": true, "axis": -1, "momentum": 0.999, "epsilon": 0.001, "center": true, "scale": true, "beta_initializer": {"class_name": "Zeros", "config": {}}, "gamma_initializer": {"class_name": "Ones", "config": {}}, "moving_mean_initializer": {"class_name": "Zeros", "config": {}}, "moving_variance_initializer": {"class_name": "Ones", "config": {}}, "beta_regularizer": null, "gamma_regularizer": null, "beta_constraint": null, "gamma_constraint": null}, "inbound_nodes": [[["conv_dw_8", 0, 0, {}]]]}, {"name": "conv_dw_8_relu", "class_name": "Activation", "config": {"name": "conv_dw_8_relu", "trainable": true, "activation": "relu6"}, "inbound_nodes": [[["conv_dw_8_bn", 0, 0, {}]]]}, {"name": "conv_pw_8", "class_name": "Conv2D", "config": {"name": "conv_pw_8", "trainable": true, "filters": 64, "kernel_size": [1, 1], "strides": [1, 1], "padding": "same", "data_format": "channels_last", "dilation_rate": [1, 1], "activation": "linear", "use_bias": false, "kernel_initializer": {"class_name": "VarianceScaling", "config": {"scale": 1.0, "mode": "fan_avg", "distribution": "uniform", "seed": null}}, "bias_initializer": {"class_name": "Zeros", "config": {}}, "kernel_regularizer": null, "bias_regularizer": null, "activity_regularizer": null, "kernel_constraint": null, "bias_constraint": null}, "inbound_nodes": [[["conv_dw_8_relu", 0, 0, {}]]]}, {"name": "conv_pw_8_bn", "class_name": "BatchNormalization", "config": {"name": "conv_pw_8_bn", "trainable": true, "axis": -1, "momentum": 0.999, "epsilon": 0.001, "center": true, "scale": true, "beta_initializer": {"class_name": "Zeros", "config": {}}, "gamma_initializer": {"class_name": "Ones", "config": {}}, "moving_mean_initializer": {"class_name": "Zeros", "config": {}}, "moving_variance_initializer": {"class_name": "Ones", "config": {}}, "beta_regularizer": null, "gamma_regularizer": null, "beta_constraint": null, "gamma_constraint": null}, "inbound_nodes": [[["conv_pw_8", 0, 0, {}]]]}, {"name": "add_4", "class_name": "Add", "config": {"name": "add_4", "trainable": true}, "inbound_nodes": [[["conv_pw_7_bn", 0, 0, {}], ["conv_pw_8_bn", 0, 0, {}]]]}, {"name": "conv_expand_9", "class_name": "Conv2D", "config": {"name": "conv_expand_9", "trainable": true, "filters": 384, "kernel_size": [1, 1], "strides": [1, 1], "padding": "same", "data_format": "channels_last", "dilation_rate": [1, 1], "activation": "linear", "use_bias": false, "kernel_initializer": {"class_name": "VarianceScaling", "config": {"scale": 1.0, "mode": "fan_avg", "distribution": "uniform", "seed": null}}, "bias_initializer": {"class_name": "Zeros", "config": {}}, "kernel_regularizer": null, "bias_regularizer": null, "activity_regularizer": null, "kernel_constraint": null, "bias_constraint": null}, "inbound_nodes": [[["add_4", 0, 0, {}]]]}, {"name": "conv_expand_9_bn", "class_name": "BatchNormalization", "config": {"name": "conv_expand_9_bn", "trainable": true, "axis": -1, "momentum": 0.999, "epsilon": 0.001, "center": true, "scale": true, "beta_initializer": {"class_name": "Zeros", "config": {}}, "gamma_initializer": {"class_name": "Ones", "config": {}}, "moving_mean_initializer": {"class_name": "Zeros", "config": {}}, "moving_variance_initializer": {"class_name": "Ones", "config": {}}, "beta_regularizer": null, "gamma_regularizer": null, "beta_constraint": null, "gamma_constraint": null}, "inbound_nodes": [[["conv_expand_9", 0, 0, {}]]]}, {"name": "conv_expand_9_relu", "class_name": "Activation", "config": {"name": "conv_expand_9_relu", "trainable": true, "activation": "relu6"}, "inbound_nodes": [[["conv_expand_9_bn", 0, 0, {}]]]}, {"name": "conv_dw_9", "class_name": "DepthwiseConv2D", "config": {"name": "conv_dw_9", "trainable": true, "kernel_size": [3, 3], "strides": [1, 1], "padding": "same", "data_format": "channels_last", "dilation_rate": [1, 1], "activation": "linear", "use_bias": false, "bias_initializer": {"class_name": "Zeros", "config": {}}, "bias_regularizer": null, "activity_regularizer": null, "bias_constraint": null, "depth_multiplier": 1, "depthwise_initializer": {"class_name": "VarianceScaling", "config": {"scale": 1.0, "mode": "fan_avg", "distribution": "uniform", "seed": null}}, "depthwise_regularizer": null, "depthwise_constraint": null}, "inbound_nodes": [[["conv_expand_9_relu", 0, 0, {}]]]}, {"name": "conv_dw_9_bn", "class_name": "BatchNormalization", "config": {"name": "conv_dw_9_bn", "trainable": true, "axis": -1, "momentum": 0.999, "epsilon": 0.001, "center": true, "scale": true, "beta_initializer": {"class_name": "Zeros", "config": {}}, "gamma_initializer": {"class_name": "Ones", "config": {}}, "moving_mean_initializer": {"class_name": "Zeros", "config": {}}, "moving_variance_initializer": {"class_name": "Ones", "config": {}}, "beta_regularizer": null, "gamma_regularizer": null, "beta_constraint": null, "gamma_constraint": null}, "inbound_nodes": [[["conv_dw_9", 0, 0, {}]]]}, {"name": "conv_dw_9_relu", "class_name": "Activation", "config": {"name": "conv_dw_9_relu", "trainable": true, "activation": "relu6"}, "inbound_nodes": [[["conv_dw_9_bn", 0, 0, {}]]]}, {"name": "conv_pw_9", "class_name": "Conv2D", "config": {"name": "conv_pw_9", "trainable": true, "filters": 64, "kernel_size": [1, 1], "strides": [1, 1], "padding": "same", "data_format": "channels_last", "dilation_rate": [1, 1], "activation": "linear", "use_bias": false, "kernel_initializer": {"class_name": "VarianceScaling", "config": {"scale": 1.0, "mode": "fan_avg", "distribution": "uniform", "seed": null}}, "bias_initializer": {"class_name": "Zeros", "config": {}}, "kernel_regularizer": null, "bias_regularizer": null, "activity_regularizer": null, "kernel_constraint": null, "bias_constraint": null}, "inbound_nodes": [[["conv_dw_9_relu", 0, 0, {}]]]}, {"name": "conv_pw_9_bn", "class_name": "BatchNormalization", "config": {"name": "conv_pw_9_bn", "trainable": true, "axis": -1, "momentum": 0.999, "epsilon": 0.001, "center": true, "scale": true, "beta_initializer": {"class_name": "Zeros", "config": {}}, "gamma_initializer": {"class_name": "Ones", "config": {}}, "moving_mean_initializer": {"class_name": "Zeros", "config": {}}, "moving_variance_initializer": {"class_name": "Ones", "config": {}}, "beta_regularizer": null, "gamma_regularizer": null, "beta_constraint": null, "gamma_constraint": null}, "inbound_nodes": [[["conv_pw_9", 0, 0, {}]]]}, {"name": "add_5", "class_name": "Add", "config": {"name": "add_5", "trainable": true}, "inbound_nodes": [[["add_4", 0, 0, {}], ["conv_pw_9_bn", 0, 0, {}]]]}, {"name": "conv_expand_10", "class_name": "Conv2D", "config": {"name": "conv_expand_10", "trainable": true, "filters": 384, "kernel_size": [1, 1], "strides": [1, 1], "padding": "same", "data_format": "channels_last", "dilation_rate": [1, 1], "activation": "linear", "use_bias": false, "kernel_initializer": {"class_name": "VarianceScaling", "config": {"scale": 1.0, "mode": "fan_avg", "distribution": "uniform", "seed": null}}, "bias_initializer": {"class_name": "Zeros", "config": {}}, "kernel_regularizer": null, "bias_regularizer": null, "activity_regularizer": null, "kernel_constraint": null, "bias_constraint": null}, "inbound_nodes": [[["add_5", 0, 0, {}]]]}, {"name": "conv_expand_10_bn", "class_name": "BatchNormalization", "config": {"name": "conv_expand_10_bn", "trainable": true, "axis": -1, "momentum": 0.999, "epsilon": 0.001, "center": true, "scale": true, "beta_initializer": {"class_name": "Zeros", "config": {}}, "gamma_initializer": {"class_name": "Ones", "config": {}}, "moving_mean_initializer": {"class_name": "Zeros", "config": {}}, "moving_variance_initializer": {"class_name": "Ones", "config": {}}, "beta_regularizer": null, "gamma_regularizer": null, "beta_constraint": null, "gamma_constraint": null}, "inbound_nodes": [[["conv_expand_10", 0, 0, {}]]]}, {"name": "conv_expand_10_relu", "class_name": "Activation", "config": {"name": "conv_expand_10_relu", "trainable": true, "activation": "relu6"}, "inbound_nodes": [[["conv_expand_10_bn", 0, 0, {}]]]}, {"name": "conv_dw_10", "class_name": "DepthwiseConv2D", "config": {"name": "conv_dw_10", "trainable": true, "kernel_size": [3, 3], "strides": [1, 1], "padding": "same", "data_format": "channels_last", "dilation_rate": [1, 1], "activation": "linear", "use_bias": false, "bias_initializer": {"class_name": "Zeros", "config": {}}, "bias_regularizer": null, "activity_regularizer": null, "bias_constraint": null, "depth_multiplier": 1, "depthwise_initializer": {"class_name": "VarianceScaling", "config": {"scale": 1.0, "mode": "fan_avg", "distribution": "uniform", "seed": null}}, "depthwise_regularizer": null, "depthwise_constraint": null}, "inbound_nodes": [[["conv_expand_10_relu", 0, 0, {}]]]}, {"name": "conv_dw_10_bn", "class_name": "BatchNormalization", "config": {"name": "conv_dw_10_bn", "trainable": true, "axis": -1, "momentum": 0.999, "epsilon": 0.001, "center": true, "scale": true, "beta_initializer": {"class_name": "Zeros", "config": {}}, "gamma_initializer": {"class_name": "Ones", "config": {}}, "moving_mean_initializer": {"class_name": "Zeros", "config": {}}, "moving_variance_initializer": {"class_name": "Ones", "config": {}}, "beta_regularizer": null, "gamma_regularizer": null, "beta_constraint": null, "gamma_constraint": null}, "inbound_nodes": [[["conv_dw_10", 0, 0, {}]]]}, {"name": "conv_dw_10_relu", "class_name": "Activation", "config": {"name": "conv_dw_10_relu", "trainable": true, "activation": "relu6"}, "inbound_nodes": [[["conv_dw_10_bn", 0, 0, {}]]]}, {"name": "conv_pw_10", "class_name": "Conv2D", "config": {"name": "conv_pw_10", "trainable": true, "filters": 64, "kernel_size": [1, 1], "strides": [1, 1], "padding": "same", "data_format": "channels_last", "dilation_rate": [1, 1], "activation": "linear", "use_bias": false, "kernel_initializer": {"class_name": "VarianceScaling", "config": {"scale": 1.0, "mode": "fan_avg", "distribution": "uniform", "seed": null}}, "bias_initializer": {"class_name": "Zeros", "config": {}}, "kernel_regularizer": null, "bias_regularizer": null, "activity_regularizer": null, "kernel_constraint": null, "bias_constraint": null}, "inbound_nodes": [[["conv_dw_10_relu", 0, 0, {}]]]}, {"name": "conv_pw_10_bn", "class_name": "BatchNormalization", "config": {"name": "conv_pw_10_bn", "trainable": true, "axis": -1, "momentum": 0.999, "epsilon": 0.001, "center": true, "scale": true, "beta_initializer": {"class_name": "Zeros", "config": {}}, "gamma_initializer": {"class_name": "Ones", "config": {}}, "moving_mean_initializer": {"class_name": "Zeros", "config": {}}, "moving_variance_initializer": {"class_name": "Ones", "config": {}}, "beta_regularizer": null, "gamma_regularizer": null, "beta_constraint": null, "gamma_constraint": null}, "inbound_nodes": [[["conv_pw_10", 0, 0, {}]]]}, {"name": "add_6", "class_name": "Add", "config": {"name": "add_6", "trainable": true}, "inbound_nodes": [[["add_5", 0, 0, {}], ["conv_pw_10_bn", 0, 0, {}]]]}, {"name": "conv_expand_11", "class_name": "Conv2D", "config": {"name": "conv_expand_11", "trainable": true, "filters": 384, "kernel_size": [1, 1], "strides": [1, 1], "padding": "same", "data_format": "channels_last", "dilation_rate": [1, 1], "activation": "linear", "use_bias": false, "kernel_initializer": {"class_name": "VarianceScaling", "config": {"scale": 1.0, "mode": "fan_avg", "distribution": "uniform", "seed": null}}, "bias_initializer": {"class_name": "Zeros", "config": {}}, "kernel_regularizer": null, "bias_regularizer": null, "activity_regularizer": null, "kernel_constraint": null, "bias_constraint": null}, "inbound_nodes": [[["add_6", 0, 0, {}]]]}, {"name": "conv_expand_11_bn", "class_name": "BatchNormalization", "config": {"name": "conv_expand_11_bn", "trainable": true, "axis": -1, "momentum": 0.999, "epsilon": 0.001, "center": true, "scale": true, "beta_initializer": {"class_name": "Zeros", "config": {}}, "gamma_initializer": {"class_name": "Ones", "config": {}}, "moving_mean_initializer": {"class_name": "Zeros", "config": {}}, "moving_variance_initializer": {"class_name": "Ones", "config": {}}, "beta_regularizer": null, "gamma_regularizer": null, "beta_constraint": null, "gamma_constraint": null}, "inbound_nodes": [[["conv_expand_11", 0, 0, {}]]]}, {"name": "conv_expand_11_relu", "class_name": "Activation", "config": {"name": "conv_expand_11_relu", "trainable": true, "activation": "relu6"}, "inbound_nodes": [[["conv_expand_11_bn", 0, 0, {}]]]}, {"name": "conv_dw_11", "class_name": "DepthwiseConv2D", "config": {"name": "conv_dw_11", "trainable": true, "kernel_size": [3, 3], "strides": [1, 1], "padding": "same", "data_format": "channels_last", "dilation_rate": [1, 1], "activation": "linear", "use_bias": false, "bias_initializer": {"class_name": "Zeros", "config": {}}, "bias_regularizer": null, "activity_regularizer": null, "bias_constraint": null, "depth_multiplier": 1, "depthwise_initializer": {"class_name": "VarianceScaling", "config": {"scale": 1.0, "mode": "fan_avg", "distribution": "uniform", "seed": null}}, "depthwise_regularizer": null, "depthwise_constraint": null}, "inbound_nodes": [[["conv_expand_11_relu", 0, 0, {}]]]}, {"name": "conv_dw_11_bn", "class_name": "BatchNormalization", "config": {"name": "conv_dw_11_bn", "trainable": true, "axis": -1, "momentum": 0.999, "epsilon": 0.001, "center": true, "scale": true, "beta_initializer": {"class_name": "Zeros", "config": {}}, "gamma_initializer": {"class_name": "Ones", "config": {}}, "moving_mean_initializer": {"class_name": "Zeros", "config": {}}, "moving_variance_initializer": {"class_name": "Ones", "config": {}}, "beta_regularizer": null, "gamma_regularizer": null, "beta_constraint": null, "gamma_constraint": null}, "inbound_nodes": [[["conv_dw_11", 0, 0, {}]]]}, {"name": "conv_dw_11_relu", "class_name": "Activation", "config": {"name": "conv_dw_11_relu", "trainable": true, "activation": "relu6"}, "inbound_nodes": [[["conv_dw_11_bn", 0, 0, {}]]]}, {"name": "conv_pw_11", "class_name": "Conv2D", "config": {"name": "conv_pw_11", "trainable": true, "filters": 96, "kernel_size": [1, 1], "strides": [1, 1], "padding": "same", "data_format": "channels_last", "dilation_rate": [1, 1], "activation": "linear", "use_bias": false, "kernel_initializer": {"class_name": "VarianceScaling", "config": {"scale": 1.0, "mode": "fan_avg", "distribution": "uniform", "seed": null}}, "bias_initializer": {"class_name": "Zeros", "config": {}}, "kernel_regularizer": null, "bias_regularizer": null, "activity_regularizer": null, "kernel_constraint": null, "bias_constraint": null}, "inbound_nodes": [[["conv_dw_11_relu", 0, 0, {}]]]}, {"name": "conv_pw_11_bn", "class_name": "BatchNormalization", "config": {"name": "conv_pw_11_bn", "trainable": true, "axis": -1, "momentum": 0.999, "epsilon": 0.001, "center": true, "scale": true, "beta_initializer": {"class_name": "Zeros", "config": {}}, "gamma_initializer": {"class_name": "Ones", "config": {}}, "moving_mean_initializer": {"class_name": "Zeros", "config": {}}, "moving_variance_initializer": {"class_name": "Ones", "config": {}}, "beta_regularizer": null, "gamma_regularizer": null, "beta_constraint": null, "gamma_constraint": null}, "inbound_nodes": [[["conv_pw_11", 0, 0, {}]]]}, {"name": "conv_expand_12", "class_name": "Conv2D", "config": {"name": "conv_expand_12", "trainable": true, "filters": 576, "kernel_size": [1, 1], "strides": [1, 1], "padding": "same", "data_format": "channels_last", "dilation_rate": [1, 1], "activation": "linear", "use_bias": false, "kernel_initializer": {"class_name": "VarianceScaling", "config": {"scale": 1.0, "mode": "fan_avg", "distribution": "uniform", "seed": null}}, "bias_initializer": {"class_name": "Zeros", "config": {}}, "kernel_regularizer": null, "bias_regularizer": null, "activity_regularizer": null, "kernel_constraint": null, "bias_constraint": null}, "inbound_nodes": [[["conv_pw_11_bn", 0, 0, {}]]]}, {"name": "conv_expand_12_bn", "class_name": "BatchNormalization", "config": {"name": "conv_expand_12_bn", "trainable": true, "axis": -1, "momentum": 0.999, "epsilon": 0.001, "center": true, "scale": true, "beta_initializer": {"class_name": "Zeros", "config": {}}, "gamma_initializer": {"class_name": "Ones", "config": {}}, "moving_mean_initializer": {"class_name": "Zeros", "config": {}}, "moving_variance_initializer": {"class_name": "Ones", "config": {}}, "beta_regularizer": null, "gamma_regularizer": null, "beta_constraint": null, "gamma_constraint": null}, "inbound_nodes": [[["conv_expand_12", 0, 0, {}]]]}, {"name": "conv_expand_12_relu", "class_name": "Activation", "config": {"name": "conv_expand_12_relu", "trainable": true, "activation": "relu6"}, "inbound_nodes": [[["conv_expand_12_bn", 0, 0, {}]]]}, {"name": "conv_dw_12", "class_name": "DepthwiseConv2D", "config": {"name": "conv_dw_12", "trainable": true, "kernel_size": [3, 3], "strides": [1, 1], "padding": "same", "data_format": "channels_last", "dilation_rate": [1, 1], "activation": "linear", "use_bias": false, "bias_initializer": {"class_name": "Zeros", "config": {}}, "bias_regularizer": null, "activity_regularizer": null, "bias_constraint": null, "depth_multiplier": 1, "depthwise_initializer": {"class_name": "VarianceScaling", "config": {"scale": 1.0, "mode": "fan_avg", "distribution": "uniform", "seed": null}}, "depthwise_regularizer": null, "depthwise_constraint": null}, "inbound_nodes": [[["conv_expand_12_relu", 0, 0, {}]]]}, {"name": "conv_dw_12_bn", "class_name": "BatchNormalization", "config": {"name": "conv_dw_12_bn", "trainable": true, "axis": -1, "momentum": 0.999, "epsilon": 0.001, "center": true, "scale": true, "beta_initializer": {"class_name": "Zeros", "config": {}}, "gamma_initializer": {"class_name": "Ones", "config": {}}, "moving_mean_initializer": {"class_name": "Zeros", "config": {}}, "moving_variance_initializer": {"class_name": "Ones", "config": {}}, "beta_regularizer": null, "gamma_regularizer": null, "beta_constraint": null, "gamma_constraint": null}, "inbound_nodes": [[["conv_dw_12", 0, 0, {}]]]}, {"name": "conv_dw_12_relu", "class_name": "Activation", "config": {"name": "conv_dw_12_relu", "trainable": true, "activation": "relu6"}, "inbound_nodes": [[["conv_dw_12_bn", 0, 0, {}]]]}, {"name": "conv_pw_12", "class_name": "Conv2D", "config": {"name": "conv_pw_12", "trainable": true, "filters": 96, "kernel_size": [1, 1], "strides": [1, 1], "padding": "same", "data_format": "channels_last", "dilation_rate": [1, 1], "activation": "linear", "use_bias": false, "kernel_initializer": {"class_name": "VarianceScaling", "config": {"scale": 1.0, "mode": "fan_avg", "distribution": "uniform", "seed": null}}, "bias_initializer": {"class_name": "Zeros", "config": {}}, "kernel_regularizer": null, "bias_regularizer": null, "activity_regularizer": null, "kernel_constraint": null, "bias_constraint": null}, "inbound_nodes": [[["conv_dw_12_relu", 0, 0, {}]]]}, {"name": "conv_pw_12_bn", "class_name": "BatchNormalization", "config": {"name": "conv_pw_12_bn", "trainable": true, "axis": -1, "momentum": 0.999, "epsilon": 0.001, "center": true, "scale": true, "beta_initializer": {"class_name": "Zeros", "config": {}}, "gamma_initializer": {"class_name": "Ones", "config": {}}, "moving_mean_initializer": {"class_name": "Zeros", "config": {}}, "moving_variance_initializer": {"class_name": "Ones", "config": {}}, "beta_regularizer": null, "gamma_regularizer": null, "beta_constraint": null, "gamma_constraint": null}, "inbound_nodes": [[["conv_pw_12", 0, 0, {}]]]}, {"name": "add_7", "class_name": "Add", "config": {"name": "add_7", "trainable": true}, "inbound_nodes": [[["conv_pw_11_bn", 0, 0, {}], ["conv_pw_12_bn", 0, 0, {}]]]}, {"name": "conv_expand_13", "class_name": "Conv2D", "config": {"name": "conv_expand_13", "trainable": true, "filters": 576, "kernel_size": [1, 1], "strides": [1, 1], "padding": "same", "data_format": "channels_last", "dilation_rate": [1, 1], "activation": "linear", "use_bias": false, "kernel_initializer": {"class_name": "VarianceScaling", "config": {"scale": 1.0, "mode": "fan_avg", "distribution": "uniform", "seed": null}}, "bias_initializer": {"class_name": "Zeros", "config": {}}, "kernel_regularizer": null, "bias_regularizer": null, "activity_regularizer": null, "kernel_constraint": null, "bias_constraint": null}, "inbound_nodes": [[["add_7", 0, 0, {}]]]}, {"name": "conv_expand_13_bn", "class_name": "BatchNormalization", "config": {"name": "conv_expand_13_bn", "trainable": true, "axis": -1, "momentum": 0.999, "epsilon": 0.001, "center": true, "scale": true, "beta_initializer": {"class_name": "Zeros", "config": {}}, "gamma_initializer": {"class_name": "Ones", "config": {}}, "moving_mean_initializer": {"class_name": "Zeros", "config": {}}, "moving_variance_initializer": {"class_name": "Ones", "config": {}}, "beta_regularizer": null, "gamma_regularizer": null, "beta_constraint": null, "gamma_constraint": null}, "inbound_nodes": [[["conv_expand_13", 0, 0, {}]]]}, {"name": "conv_expand_13_relu", "class_name": "Activation", "config": {"name": "conv_expand_13_relu", "trainable": true, "activation": "relu6"}, "inbound_nodes": [[["conv_expand_13_bn", 0, 0, {}]]]}, {"name": "conv_dw_13", "class_name": "DepthwiseConv2D", "config": {"name": "conv_dw_13", "trainable": true, "kernel_size": [3, 3], "strides": [1, 1], "padding": "same", "data_format": "channels_last", "dilation_rate": [1, 1], "activation": "linear", "use_bias": false, "bias_initializer": {"class_name": "Zeros", "config": {}}, "bias_regularizer": null, "activity_regularizer": null, "bias_constraint": null, "depth_multiplier": 1, "depthwise_initializer": {"class_name": "VarianceScaling", "config": {"scale": 1.0, "mode": "fan_avg", "distribution": "uniform", "seed": null}}, "depthwise_regularizer": null, "depthwise_constraint": null}, "inbound_nodes": [[["conv_expand_13_relu", 0, 0, {}]]]}, {"name": "conv_dw_13_bn", "class_name": "BatchNormalization", "config": {"name": "conv_dw_13_bn", "trainable": true, "axis": -1, "momentum": 0.999, "epsilon": 0.001, "center": true, "scale": true, "beta_initializer": {"class_name": "Zeros", "config": {}}, "gamma_initializer": {"class_name": "Ones", "config": {}}, "moving_mean_initializer": {"class_name": "Zeros", "config": {}}, "moving_variance_initializer": {"class_name": "Ones", "config": {}}, "beta_regularizer": null, "gamma_regularizer": null, "beta_constraint": null, "gamma_constraint": null}, "inbound_nodes": [[["conv_dw_13", 0, 0, {}]]]}, {"name": "conv_dw_13_relu", "class_name": "Activation", "config": {"name": "conv_dw_13_relu", "trainable": true, "activation": "relu6"}, "inbound_nodes": [[["conv_dw_13_bn", 0, 0, {}]]]}, {"name": "conv_pw_13", "class_name": "Conv2D", "config": {"name": "conv_pw_13", "trainable": true, "filters": 96, "kernel_size": [1, 1], "strides": [1, 1], "padding": "same", "data_format": "channels_last", "dilation_rate": [1, 1], "activation": "linear", "use_bias": false, "kernel_initializer": {"class_name": "VarianceScaling", "config": {"scale": 1.0, "mode": "fan_avg", "distribution": "uniform", "seed": null}}, "bias_initializer": {"class_name": "Zeros", "config": {}}, "kernel_regularizer": null, "bias_regularizer": null, "activity_regularizer": null, "kernel_constraint": null, "bias_constraint": null}, "inbound_nodes": [[["conv_dw_13_relu", 0, 0, {}]]]}, {"name": "conv_pw_13_bn", "class_name": "BatchNormalization", "config": {"name": "conv_pw_13_bn", "trainable": true, "axis": -1, "momentum": 0.999, "epsilon": 0.001, "center": true, "scale": true, "beta_initializer": {"class_name": "Zeros", "config": {}}, "gamma_initializer": {"class_name": "Ones", "config": {}}, "moving_mean_initializer": {"class_name": "Zeros", "config": {}}, "moving_variance_initializer": {"class_name": "Ones", "config": {}}, "beta_regularizer": null, "gamma_regularizer": null, "beta_constraint": null, "gamma_constraint": null}, "inbound_nodes": [[["conv_pw_13", 0, 0, {}]]]}, {"name": "add_8", "class_name": "Add", "config": {"name": "add_8", "trainable": true}, "inbound_nodes": [[["add_7", 0, 0, {}], ["conv_pw_13_bn", 0, 0, {}]]]}, {"name": "conv_expand_14", "class_name": "Conv2D", "config": {"name": "conv_expand_14", "trainable": true, "filters": 576, "kernel_size": [1, 1], "strides": [1, 1], "padding": "same", "data_format": "channels_last", "dilation_rate": [1, 1], "activation": "linear", "use_bias": false, "kernel_initializer": {"class_name": "VarianceScaling", "config": {"scale": 1.0, "mode": "fan_avg", "distribution": "uniform", "seed": null}}, "bias_initializer": {"class_name": "Zeros", "config": {}}, "kernel_regularizer": null, "bias_regularizer": null, "activity_regularizer": null, "kernel_constraint": null, "bias_constraint": null}, "inbound_nodes": [[["add_8", 0, 0, {}]]]}, {"name": "conv_expand_14_bn", "class_name": "BatchNormalization", "config": {"name": "conv_expand_14_bn", "trainable": true, "axis": -1, "momentum": 0.999, "epsilon": 0.001, "center": true, "scale": true, "beta_initializer": {"class_name": "Zeros", "config": {}}, "gamma_initializer": {"class_name": "Ones", "config": {}}, "moving_mean_initializer": {"class_name": "Zeros", "config": {}}, "moving_variance_initializer": {"class_name": "Ones", "config": {}}, "beta_regularizer": null, "gamma_regularizer": null, "beta_constraint": null, "gamma_constraint": null}, "inbound_nodes": [[["conv_expand_14", 0, 0, {}]]]}, {"name": "conv_expand_14_relu", "class_name": "Activation", "config": {"name": "conv_expand_14_relu", "trainable": true, "activation": "relu6"}, "inbound_nodes": [[["conv_expand_14_bn", 0, 0, {}]]]}, {"name": "conv_dw_14", "class_name": "DepthwiseConv2D", "config": {"name": "conv_dw_14", "trainable": true, "kernel_size": [3, 3], "strides": [2, 2], "padding": "same", "data_format": "channels_last", "dilation_rate": [1, 1], "activation": "linear", "use_bias": false, "bias_initializer": {"class_name": "Zeros", "config": {}}, "bias_regularizer": null, "activity_regularizer": null, "bias_constraint": null, "depth_multiplier": 1, "depthwise_initializer": {"class_name": "VarianceScaling", "config": {"scale": 1.0, "mode": "fan_avg", "distribution": "uniform", "seed": null}}, "depthwise_regularizer": null, "depthwise_constraint": null}, "inbound_nodes": [[["conv_expand_14_relu", 0, 0, {}]]]}, {"name": "conv_dw_14_bn", "class_name": "BatchNormalization", "config": {"name": "conv_dw_14_bn", "trainable": true, "axis": -1, "momentum": 0.999, "epsilon": 0.001, "center": true, "scale": true, "beta_initializer": {"class_name": "Zeros", "config": {}}, "gamma_initializer": {"class_name": "Ones", "config": {}}, "moving_mean_initializer": {"class_name": "Zeros", "config": {}}, "moving_variance_initializer": {"class_name": "Ones", "config": {}}, "beta_regularizer": null, "gamma_regularizer": null, "beta_constraint": null, "gamma_constraint": null}, "inbound_nodes": [[["conv_dw_14", 0, 0, {}]]]}, {"name": "conv_dw_14_relu", "class_name": "Activation", "config": {"name": "conv_dw_14_relu", "trainable": true, "activation": "relu6"}, "inbound_nodes": [[["conv_dw_14_bn", 0, 0, {}]]]}, {"name": "conv_pw_14", "class_name": "Conv2D", "config": {"name": "conv_pw_14", "trainable": true, "filters": 160, "kernel_size": [1, 1], "strides": [1, 1], "padding": "same", "data_format": "channels_last", "dilation_rate": [1, 1], "activation": "linear", "use_bias": false, "kernel_initializer": {"class_name": "VarianceScaling", "config": {"scale": 1.0, "mode": "fan_avg", "distribution": "uniform", "seed": null}}, "bias_initializer": {"class_name": "Zeros", "config": {}}, "kernel_regularizer": null, "bias_regularizer": null, "activity_regularizer": null, "kernel_constraint": null, "bias_constraint": null}, "inbound_nodes": [[["conv_dw_14_relu", 0, 0, {}]]]}, {"name": "conv_pw_14_bn", "class_name": "BatchNormalization", "config": {"name": "conv_pw_14_bn", "trainable": true, "axis": -1, "momentum": 0.999, "epsilon": 0.001, "center": true, "scale": true, "beta_initializer": {"class_name": "Zeros", "config": {}}, "gamma_initializer": {"class_name": "Ones", "config": {}}, "moving_mean_initializer": {"class_name": "Zeros", "config": {}}, "moving_variance_initializer": {"class_name": "Ones", "config": {}}, "beta_regularizer": null, "gamma_regularizer": null, "beta_constraint": null, "gamma_constraint": null}, "inbound_nodes": [[["conv_pw_14", 0, 0, {}]]]}, {"name": "conv_expand_15", "class_name": "Conv2D", "config": {"name": "conv_expand_15", "trainable": true, "filters": 960, "kernel_size": [1, 1], "strides": [1, 1], "padding": "same", "data_format": "channels_last", "dilation_rate": [1, 1], "activation": "linear", "use_bias": false, "kernel_initializer": {"class_name": "VarianceScaling", "config": {"scale": 1.0, "mode": "fan_avg", "distribution": "uniform", "seed": null}}, "bias_initializer": {"class_name": "Zeros", "config": {}}, "kernel_regularizer": null, "bias_regularizer": null, "activity_regularizer": null, "kernel_constraint": null, "bias_constraint": null}, "inbound_nodes": [[["conv_pw_14_bn", 0, 0, {}]]]}, {"name": "conv_expand_15_bn", "class_name": "BatchNormalization", "config": {"name": "conv_expand_15_bn", "trainable": true, "axis": -1, "momentum": 0.999, "epsilon": 0.001, "center": true, "scale": true, "beta_initializer": {"class_name": "Zeros", "config": {}}, "gamma_initializer": {"class_name": "Ones", "config": {}}, "moving_mean_initializer": {"class_name": "Zeros", "config": {}}, "moving_variance_initializer": {"class_name": "Ones", "config": {}}, "beta_regularizer": null, "gamma_regularizer": null, "beta_constraint": null, "gamma_constraint": null}, "inbound_nodes": [[["conv_expand_15", 0, 0, {}]]]}, {"name": "conv_expand_15_relu", "class_name": "Activation", "config": {"name": "conv_expand_15_relu", "trainable": true, "activation": "relu6"}, "inbound_nodes": [[["conv_expand_15_bn", 0, 0, {}]]]}, {"name": "conv_dw_15", "class_name": "DepthwiseConv2D", "config": {"name": "conv_dw_15", "trainable": true, "kernel_size": [3, 3], "strides": [1, 1], "padding": "same", "data_format": "channels_last", "dilation_rate": [1, 1], "activation": "linear", "use_bias": false, "bias_initializer": {"class_name": "Zeros", "config": {}}, "bias_regularizer": null, "activity_regularizer": null, "bias_constraint": null, "depth_multiplier": 1, "depthwise_initializer": {"class_name": "VarianceScaling", "config": {"scale": 1.0, "mode": "fan_avg", "distribution": "uniform", "seed": null}}, "depthwise_regularizer": null, "depthwise_constraint": null}, "inbound_nodes": [[["conv_expand_15_relu", 0, 0, {}]]]}, {"name": "conv_dw_15_bn", "class_name": "BatchNormalization", "config": {"name": "conv_dw_15_bn", "trainable": true, "axis": -1, "momentum": 0.999, "epsilon": 0.001, "center": true, "scale": true, "beta_initializer": {"class_name": "Zeros", "config": {}}, "gamma_initializer": {"class_name": "Ones", "config": {}}, "moving_mean_initializer": {"class_name": "Zeros", "config": {}}, "moving_variance_initializer": {"class_name": "Ones", "config": {}}, "beta_regularizer": null, "gamma_regularizer": null, "beta_constraint": null, "gamma_constraint": null}, "inbound_nodes": [[["conv_dw_15", 0, 0, {}]]]}, {"name": "conv_dw_15_relu", "class_name": "Activation", "config": {"name": "conv_dw_15_relu", "trainable": true, "activation": "relu6"}, "inbound_nodes": [[["conv_dw_15_bn", 0, 0, {}]]]}, {"name": "conv_pw_15", "class_name": "Conv2D", "config": {"name": "conv_pw_15", "trainable": true, "filters": 160, "kernel_size": [1, 1], "strides": [1, 1], "padding": "same", "data_format": "channels_last", "dilation_rate": [1, 1], "activation": "linear", "use_bias": false, "kernel_initializer": {"class_name": "VarianceScaling", "config": {"scale": 1.0, "mode": "fan_avg", "distribution": "uniform", "seed": null}}, "bias_initializer": {"class_name": "Zeros", "config": {}}, "kernel_regularizer": null, "bias_regularizer": null, "activity_regularizer": null, "kernel_constraint": null, "bias_constraint": null}, "inbound_nodes": [[["conv_dw_15_relu", 0, 0, {}]]]}, {"name": "conv_pw_15_bn", "class_name": "BatchNormalization", "config": {"name": "conv_pw_15_bn", "trainable": true, "axis": -1, "momentum": 0.999, "epsilon": 0.001, "center": true, "scale": true, "beta_initializer": {"class_name": "Zeros", "config": {}}, "gamma_initializer": {"class_name": "Ones", "config": {}}, "moving_mean_initializer": {"class_name": "Zeros", "config": {}}, "moving_variance_initializer": {"class_name": "Ones", "config": {}}, "beta_regularizer": null, "gamma_regularizer": null, "beta_constraint": null, "gamma_constraint": null}, "inbound_nodes": [[["conv_pw_15", 0, 0, {}]]]}, {"name": "add_9", "class_name": "Add", "config": {"name": "add_9", "trainable": true}, "inbound_nodes": [[["conv_pw_14_bn", 0, 0, {}], ["conv_pw_15_bn", 0, 0, {}]]]}, {"name": "conv_expand_16", "class_name": "Conv2D", "config": {"name": "conv_expand_16", "trainable": true, "filters": 960, "kernel_size": [1, 1], "strides": [1, 1], "padding": "same", "data_format": "channels_last", "dilation_rate": [1, 1], "activation": "linear", "use_bias": false, "kernel_initializer": {"class_name": "VarianceScaling", "config": {"scale": 1.0, "mode": "fan_avg", "distribution": "uniform", "seed": null}}, "bias_initializer": {"class_name": "Zeros", "config": {}}, "kernel_regularizer": null, "bias_regularizer": null, "activity_regularizer": null, "kernel_constraint": null, "bias_constraint": null}, "inbound_nodes": [[["add_9", 0, 0, {}]]]}, {"name": "conv_expand_16_bn", "class_name": "BatchNormalization", "config": {"name": "conv_expand_16_bn", "trainable": true, "axis": -1, "momentum": 0.999, "epsilon": 0.001, "center": true, "scale": true, "beta_initializer": {"class_name": "Zeros", "config": {}}, "gamma_initializer": {"class_name": "Ones", "config": {}}, "moving_mean_initializer": {"class_name": "Zeros", "config": {}}, "moving_variance_initializer": {"class_name": "Ones", "config": {}}, "beta_regularizer": null, "gamma_regularizer": null, "beta_constraint": null, "gamma_constraint": null}, "inbound_nodes": [[["conv_expand_16", 0, 0, {}]]]}, {"name": "conv_expand_16_relu", "class_name": "Activation", "config": {"name": "conv_expand_16_relu", "trainable": true, "activation": "relu6"}, "inbound_nodes": [[["conv_expand_16_bn", 0, 0, {}]]]}, {"name": "conv_dw_16", "class_name": "DepthwiseConv2D", "config": {"name": "conv_dw_16", "trainable": true, "kernel_size": [3, 3], "strides": [1, 1], "padding": "same", "data_format": "channels_last", "dilation_rate": [1, 1], "activation": "linear", "use_bias": false, "bias_initializer": {"class_name": "Zeros", "config": {}}, "bias_regularizer": null, "activity_regularizer": null, "bias_constraint": null, "depth_multiplier": 1, "depthwise_initializer": {"class_name": "VarianceScaling", "config": {"scale": 1.0, "mode": "fan_avg", "distribution": "uniform", "seed": null}}, "depthwise_regularizer": null, "depthwise_constraint": null}, "inbound_nodes": [[["conv_expand_16_relu", 0, 0, {}]]]}, {"name": "conv_dw_16_bn", "class_name": "BatchNormalization", "config": {"name": "conv_dw_16_bn", "trainable": true, "axis": -1, "momentum": 0.999, "epsilon": 0.001, "center": true, "scale": true, "beta_initializer": {"class_name": "Zeros", "config": {}}, "gamma_initializer": {"class_name": "Ones", "config": {}}, "moving_mean_initializer": {"class_name": "Zeros", "config": {}}, "moving_variance_initializer": {"class_name": "Ones", "config": {}}, "beta_regularizer": null, "gamma_regularizer": null, "beta_constraint": null, "gamma_constraint": null}, "inbound_nodes": [[["conv_dw_16", 0, 0, {}]]]}, {"name": "conv_dw_16_relu", "class_name": "Activation", "config": {"name": "conv_dw_16_relu", "trainable": true, "activation": "relu6"}, "inbound_nodes": [[["conv_dw_16_bn", 0, 0, {}]]]}, {"name": "conv_pw_16", "class_name": "Conv2D", "config": {"name": "conv_pw_16", "trainable": true, "filters": 160, "kernel_size": [1, 1], "strides": [1, 1], "padding": "same", "data_format": "channels_last", "dilation_rate": [1, 1], "activation": "linear", "use_bias": false, "kernel_initializer": {"class_name": "VarianceScaling", "config": {"scale": 1.0, "mode": "fan_avg", "distribution": "uniform", "seed": null}}, "bias_initializer": {"class_name": "Zeros", "config": {}}, "kernel_regularizer": null, "bias_regularizer": null, "activity_regularizer": null, "kernel_constraint": null, "bias_constraint": null}, "inbound_nodes": [[["conv_dw_16_relu", 0, 0, {}]]]}, {"name": "conv_pw_16_bn", "class_name": "BatchNormalization", "config": {"name": "conv_pw_16_bn", "trainable": true, "axis": -1, "momentum": 0.999, "epsilon": 0.001, "center": true, "scale": true, "beta_initializer": {"class_name": "Zeros", "config": {}}, "gamma_initializer": {"class_name": "Ones", "config": {}}, "moving_mean_initializer": {"class_name": "Zeros", "config": {}}, "moving_variance_initializer": {"class_name": "Ones", "config": {}}, "beta_regularizer": null, "gamma_regularizer": null, "beta_constraint": null, "gamma_constraint": null}, "inbound_nodes": [[["conv_pw_16", 0, 0, {}]]]}, {"name": "add_10", "class_name": "Add", "config": {"name": "add_10", "trainable": true}, "inbound_nodes": [[["add_9", 0, 0, {}], ["conv_pw_16_bn", 0, 0, {}]]]}, {"name": "conv_expand_17", "class_name": "Conv2D", "config": {"name": "conv_expand_17", "trainable": true, "filters": 960, "kernel_size": [1, 1], "strides": [1, 1], "padding": "same", "data_format": "channels_last", "dilation_rate": [1, 1], "activation": "linear", "use_bias": false, "kernel_initializer": {"class_name": "VarianceScaling", "config": {"scale": 1.0, "mode": "fan_avg", "distribution": "uniform", "seed": null}}, "bias_initializer": {"class_name": "Zeros", "config": {}}, "kernel_regularizer": null, "bias_regularizer": null, "activity_regularizer": null, "kernel_constraint": null, "bias_constraint": null}, "inbound_nodes": [[["add_10", 0, 0, {}]]]}, {"name": "conv_expand_17_bn", "class_name": "BatchNormalization", "config": {"name": "conv_expand_17_bn", "trainable": true, "axis": -1, "momentum": 0.999, "epsilon": 0.001, "center": true, "scale": true, "beta_initializer": {"class_name": "Zeros", "config": {}}, "gamma_initializer": {"class_name": "Ones", "config": {}}, "moving_mean_initializer": {"class_name": "Zeros", "config": {}}, "moving_variance_initializer": {"class_name": "Ones", "config": {}}, "beta_regularizer": null, "gamma_regularizer": null, "beta_constraint": null, "gamma_constraint": null}, "inbound_nodes": [[["conv_expand_17", 0, 0, {}]]]}, {"name": "conv_expand_17_relu", "class_name": "Activation", "config": {"name": "conv_expand_17_relu", "trainable": true, "activation": "relu6"}, "inbound_nodes": [[["conv_expand_17_bn", 0, 0, {}]]]}, {"name": "conv_dw_17", "class_name": "DepthwiseConv2D", "config": {"name": "conv_dw_17", "trainable": true, "kernel_size": [3, 3], "strides": [1, 1], "padding": "same", "data_format": "channels_last", "dilation_rate": [1, 1], "activation": "linear", "use_bias": false, "bias_initializer": {"class_name": "Zeros", "config": {}}, "bias_regularizer": null, "activity_regularizer": null, "bias_constraint": null, "depth_multiplier": 1, "depthwise_initializer": {"class_name": "VarianceScaling", "config": {"scale": 1.0, "mode": "fan_avg", "distribution": "uniform", "seed": null}}, "depthwise_regularizer": null, "depthwise_constraint": null}, "inbound_nodes": [[["conv_expand_17_relu", 0, 0, {}]]]}, {"name": "conv_dw_17_bn", "class_name": "BatchNormalization", "config": {"name": "conv_dw_17_bn", "trainable": true, "axis": -1, "momentum": 0.999, "epsilon": 0.001, "center": true, "scale": true, "beta_initializer": {"class_name": "Zeros", "config": {}}, "gamma_initializer": {"class_name": "Ones", "config": {}}, "moving_mean_initializer": {"class_name": "Zeros", "config": {}}, "moving_variance_initializer": {"class_name": "Ones", "config": {}}, "beta_regularizer": null, "gamma_regularizer": null, "beta_constraint": null, "gamma_constraint": null}, "inbound_nodes": [[["conv_dw_17", 0, 0, {}]]]}, {"name": "conv_dw_17_relu", "class_name": "Activation", "config": {"name": "conv_dw_17_relu", "trainable": true, "activation": "relu6"}, "inbound_nodes": [[["conv_dw_17_bn", 0, 0, {}]]]}, {"name": "conv_pw_17", "class_name": "Conv2D", "config": {"name": "conv_pw_17", "trainable": true, "filters": 320, "kernel_size": [1, 1], "strides": [1, 1], "padding": "same", "data_format": "channels_last", "dilation_rate": [1, 1], "activation": "linear", "use_bias": false, "kernel_initializer": {"class_name": "VarianceScaling", "config": {"scale": 1.0, "mode": "fan_avg", "distribution": "uniform", "seed": null}}, "bias_initializer": {"class_name": "Zeros", "config": {}}, "kernel_regularizer": null, "bias_regularizer": null, "activity_regularizer": null, "kernel_constraint": null, "bias_constraint": null}, "inbound_nodes": [[["conv_dw_17_relu", 0, 0, {}]]]}, {"name": "conv_pw_17_bn", "class_name": "BatchNormalization", "config": {"name": "conv_pw_17_bn", "trainable": true, "axis": -1, "momentum": 0.999, "epsilon": 0.001, "center": true, "scale": true, "beta_initializer": {"class_name": "Zeros", "config": {}}, "gamma_initializer": {"class_name": "Ones", "config": {}}, "moving_mean_initializer": {"class_name": "Zeros", "config": {}}, "moving_variance_initializer": {"class_name": "Ones", "config": {}}, "beta_regularizer": null, "gamma_regularizer": null, "beta_constraint": null, "gamma_constraint": null}, "inbound_nodes": [[["conv_pw_17", 0, 0, {}]]]}, {"name": "conv18", "class_name": "Conv2D", "config": {"name": "conv18", "trainable": true, "filters": 1280, "kernel_size": [1, 1], "strides": [1, 1], "padding": "same", "data_format": "channels_last", "dilation_rate": [1, 1], "activation": "linear", "use_bias": false, "kernel_initializer": {"class_name": "VarianceScaling", "config": {"scale": 1.0, "mode": "fan_avg", "distribution": "uniform", "seed": null}}, "bias_initializer": {"class_name": "Zeros", "config": {}}, "kernel_regularizer": null, "bias_regularizer": null, "activity_regularizer": null, "kernel_constraint": null, "bias_constraint": null}, "inbound_nodes": [[["conv_pw_17_bn", 0, 0, {}]]]}, {"name": "conv18_bn", "class_name": "BatchNormalization", "config": {"name": "conv18_bn", "trainable": true, "axis": -1, "momentum": 0.999, "epsilon": 0.001, "center": true, "scale": true, "beta_initializer": {"class_name": "Zeros", "config": {}}, "gamma_initializer": {"class_name": "Ones", "config": {}}, "moving_mean_initializer": {"class_name": "Zeros", "config": {}}, "moving_variance_initializer": {"class_name": "Ones", "config": {}}, "beta_regularizer": null, "gamma_regularizer": null, "beta_constraint": null, "gamma_constraint": null}, "inbound_nodes": [[["conv18", 0, 0, {}]]]}, {"name": "conv18_relu", "class_name": "Activation", "config": {"name": "conv18_relu", "trainable": true, "activation": "relu6"}, "inbound_nodes": [[["conv18_bn", 0, 0, {}]]]}, {"name": "global_average_pooling2d_1", "class_name": "GlobalAveragePooling2D", "config": {"name": "global_average_pooling2d_1", "trainable": true, "data_format": "channels_last"}, "inbound_nodes": [[["conv18_relu", 0, 0, {}]]]}, {"name": "reshape_1", "class_name": "Reshape", "config": {"name": "reshape_1", "trainable": true, "target_shape": [1, 1, 1280]}, "inbound_nodes": [[["global_average_pooling2d_1", 0, 0, {}]]]}, {"name": "dropout", "class_name": "Dropout", "config": {"name": "dropout", "trainable": true, "rate": 0.001, "noise_shape": null, "seed": null}, "inbound_nodes": [[["reshape_1", 0, 0, {}]]]}, {"name": "conv_preds", "class_name": "Conv2D", "config": {"name": "conv_preds", "trainable": true, "filters": 7, "kernel_size": [1, 1], "strides": [1, 1], "padding": "same", "data_format": "channels_last", "dilation_rate": [1, 1], "activation": "linear", "use_bias": true, "kernel_initializer": {"class_name": "VarianceScaling", "config": {"scale": 1.0, "mode": "fan_avg", "distribution": "uniform", "seed": null}}, "bias_initializer": {"class_name": "Zeros", "config": {}}, "kernel_regularizer": null, "bias_regularizer": null, "activity_regularizer": null, "kernel_constraint": null, "bias_constraint": null}, "inbound_nodes": [[["dropout", 0, 0, {}]]]}, {"name": "act_softmax", "class_name": "Activation", "config": {"name": "act_softmax", "trainable": true, "activation": "softmax"}, "inbound_nodes": [[["conv_preds", 0, 0, {}]]]}, {"name": "reshape_2", "class_name": "Reshape", "config": {"name": "reshape_2", "trainable": true, "target_shape": [7]}, "inbound_nodes": [[["act_softmax", 0, 0, {}]]]}], "input_layers": [["input_1", 0, 0]], "output_layers": [["reshape_2", 0, 0]]}}, "training_config": {"optimizer_config": {"class_name": "Adam", "config": {"lr": 0.00010000000474974513, "beta_1": 0.8999999761581421, "beta_2": 0.9990000128746033, "decay": 0.0, "epsilon": 1e-07, "amsgrad": false}}, "loss": "categorical_crossentropy", "metrics": ["accuracy"], "sample_weight_mode": null, "loss_weights": null}}, "weightsManifest": [{"paths": ["group1-shard1of1"], "weights": [{"name": "conv1/kernel", "shape": [3, 3, 1, 32], "dtype": "float32"}]}, {"paths": ["group2-shard1of1"], "weights": [{"name": "conv18/kernel", "shape": [1, 1, 320, 1280], "dtype": "float32"}]}, {"paths": ["group3-shard1of1"], "weights": [{"name": "conv18_bn/gamma", "shape": [1280], "dtype": "float32"}, {"name": "conv18_bn/beta", "shape": [1280], "dtype": "float32"}, {"name": "conv18_bn/moving_mean", "shape": [1280], "dtype": "float32"}, {"name": "conv18_bn/moving_variance", "shape": [1280], "dtype": "float32"}]}, {"paths": ["group4-shard1of1"], "weights": [{"name": "conv1_bn/gamma", "shape": [32], "dtype": "float32"}, {"name": "conv1_bn/beta", "shape": [32], "dtype": "float32"}, {"name": "conv1_bn/moving_mean", "shape": [32], "dtype": "float32"}, {"name": "conv1_bn/moving_variance", "shape": [32], "dtype": "float32"}]}, {"paths": ["group5-shard1of1"], "weights": [{"name": "conv_dw_1/depthwise_kernel", "shape": [3, 3, 32, 1], "dtype": "float32"}]}, {"paths": ["group6-shard1of1"], "weights": [{"name": "conv_dw_10/depthwise_kernel", "shape": [3, 3, 384, 1], "dtype": "float32"}]}, {"paths": ["group7-shard1of1"], "weights": [{"name": "conv_dw_10_bn/gamma", "shape": [384], "dtype": "float32"}, {"name": "conv_dw_10_bn/beta", "shape": [384], "dtype": "float32"}, {"name": "conv_dw_10_bn/moving_mean", "shape": [384], "dtype": "float32"}, {"name": "conv_dw_10_bn/moving_variance", "shape": [384], "dtype": "float32"}]}, {"paths": ["group8-shard1of1"], "weights": [{"name": "conv_dw_11/depthwise_kernel", "shape": [3, 3, 384, 1], "dtype": "float32"}]}, {"paths": ["group9-shard1of1"], "weights": [{"name": "conv_dw_11_bn/gamma", "shape": [384], "dtype": "float32"}, {"name": "conv_dw_11_bn/beta", "shape": [384], "dtype": "float32"}, {"name": "conv_dw_11_bn/moving_mean", "shape": [384], "dtype": "float32"}, {"name": "conv_dw_11_bn/moving_variance", "shape": [384], "dtype": "float32"}]}, {"paths": ["group10-shard1of1"], "weights": [{"name": "conv_dw_12/depthwise_kernel", "shape": [3, 3, 576, 1], "dtype": "float32"}]}, {"paths": ["group11-shard1of1"], "weights": [{"name": "conv_dw_12_bn/gamma", "shape": [576], "dtype": "float32"}, {"name": "conv_dw_12_bn/beta", "shape": [576], "dtype": "float32"}, {"name": "conv_dw_12_bn/moving_mean", "shape": [576], "dtype": "float32"}, {"name": "conv_dw_12_bn/moving_variance", "shape": [576], "dtype": "float32"}]}, {"paths": ["group12-shard1of1"], "weights": [{"name": "conv_dw_13/depthwise_kernel", "shape": [3, 3, 576, 1], "dtype": "float32"}]}, {"paths": ["group13-shard1of1"], "weights": [{"name": "conv_dw_13_bn/gamma", "shape": [576], "dtype": "float32"}, {"name": "conv_dw_13_bn/beta", "shape": [576], "dtype": "float32"}, {"name": "conv_dw_13_bn/moving_mean", "shape": [576], "dtype": "float32"}, {"name": "conv_dw_13_bn/moving_variance", "shape": [576], "dtype": "float32"}]}, {"paths": ["group14-shard1of1"], "weights": [{"name": "conv_dw_14/depthwise_kernel", "shape": [3, 3, 576, 1], "dtype": "float32"}]}, {"paths": ["group15-shard1of1"], "weights": [{"name": "conv_dw_14_bn/gamma", "shape": [576], "dtype": "float32"}, {"name": "conv_dw_14_bn/beta", "shape": [576], "dtype": "float32"}, {"name": "conv_dw_14_bn/moving_mean", "shape": [576], "dtype": "float32"}, {"name": "conv_dw_14_bn/moving_variance", "shape": [576], "dtype": "float32"}]}, {"paths": ["group16-shard1of1"], "weights": [{"name": "conv_dw_15/depthwise_kernel", "shape": [3, 3, 960, 1], "dtype": "float32"}]}, {"paths": ["group17-shard1of1"], "weights": [{"name": "conv_dw_15_bn/gamma", "shape": [960], "dtype": "float32"}, {"name": "conv_dw_15_bn/beta", "shape": [960], "dtype": "float32"}, {"name": "conv_dw_15_bn/moving_mean", "shape": [960], "dtype": "float32"}, {"name": "conv_dw_15_bn/moving_variance", "shape": [960], "dtype": "float32"}]}, {"paths": ["group18-shard1of1"], "weights": [{"name": "conv_dw_16/depthwise_kernel", "shape": [3, 3, 960, 1], "dtype": "float32"}]}, {"paths": ["group19-shard1of1"], "weights": [{"name": "conv_dw_16_bn/gamma", "shape": [960], "dtype": "float32"}, {"name": "conv_dw_16_bn/beta", "shape": [960], "dtype": "float32"}, {"name": "conv_dw_16_bn/moving_mean", "shape": [960], "dtype": "float32"}, {"name": "conv_dw_16_bn/moving_variance", "shape": [960], "dtype": "float32"}]}, {"paths": ["group20-shard1of1"], "weights": [{"name": "conv_dw_17/depthwise_kernel", "shape": [3, 3, 960, 1], "dtype": "float32"}]}, {"paths": ["group21-shard1of1"], "weights": [{"name": "conv_dw_17_bn/gamma", "shape": [960], "dtype": "float32"}, {"name": "conv_dw_17_bn/beta", "shape": [960], "dtype": "float32"}, {"name": "conv_dw_17_bn/moving_mean", "shape": [960], "dtype": "float32"}, {"name": "conv_dw_17_bn/moving_variance", "shape": [960], "dtype": "float32"}]}, {"paths": ["group22-shard1of1"], "weights": [{"name": "conv_dw_1_bn/gamma", "shape": [32], "dtype": "float32"}, {"name": "conv_dw_1_bn/beta", "shape": [32], "dtype": "float32"}, {"name": "conv_dw_1_bn/moving_mean", "shape": [32], "dtype": "float32"}, {"name": "conv_dw_1_bn/moving_variance", "shape": [32], "dtype": "float32"}]}, {"paths": ["group23-shard1of1"], "weights": [{"name": "conv_dw_2/depthwise_kernel", "shape": [3, 3, 96, 1], "dtype": "float32"}]}, {"paths": ["group24-shard1of1"], "weights": [{"name": "conv_dw_2_bn/gamma", "shape": [96], "dtype": "float32"}, {"name": "conv_dw_2_bn/beta", "shape": [96], "dtype": "float32"}, {"name": "conv_dw_2_bn/moving_mean", "shape": [96], "dtype": "float32"}, {"name": "conv_dw_2_bn/moving_variance", "shape": [96], "dtype": "float32"}]}, {"paths": ["group25-shard1of1"], "weights": [{"name": "conv_dw_3/depthwise_kernel", "shape": [3, 3, 144, 1], "dtype": "float32"}]}, {"paths": ["group26-shard1of1"], "weights": [{"name": "conv_dw_3_bn/gamma", "shape": [144], "dtype": "float32"}, {"name": "conv_dw_3_bn/beta", "shape": [144], "dtype": "float32"}, {"name": "conv_dw_3_bn/moving_mean", "shape": [144], "dtype": "float32"}, {"name": "conv_dw_3_bn/moving_variance", "shape": [144], "dtype": "float32"}]}, {"paths": ["group27-shard1of1"], "weights": [{"name": "conv_dw_4/depthwise_kernel", "shape": [3, 3, 144, 1], "dtype": "float32"}]}, {"paths": ["group28-shard1of1"], "weights": [{"name": "conv_dw_4_bn/gamma", "shape": [144], "dtype": "float32"}, {"name": "conv_dw_4_bn/beta", "shape": [144], "dtype": "float32"}, {"name": "conv_dw_4_bn/moving_mean", "shape": [144], "dtype": "float32"}, {"name": "conv_dw_4_bn/moving_variance", "shape": [144], "dtype": "float32"}]}, {"paths": ["group29-shard1of1"], "weights": [{"name": "conv_dw_5/depthwise_kernel", "shape": [3, 3, 192, 1], "dtype": "float32"}]}, {"paths": ["group30-shard1of1"], "weights": [{"name": "conv_dw_5_bn/gamma", "shape": [192], "dtype": "float32"}, {"name": "conv_dw_5_bn/beta", "shape": [192], "dtype": "float32"}, {"name": "conv_dw_5_bn/moving_mean", "shape": [192], "dtype": "float32"}, {"name": "conv_dw_5_bn/moving_variance", "shape": [192], "dtype": "float32"}]}, {"paths": ["group31-shard1of1"], "weights": [{"name": "conv_dw_6/depthwise_kernel", "shape": [3, 3, 192, 1], "dtype": "float32"}]}, {"paths": ["group32-shard1of1"], "weights": [{"name": "conv_dw_6_bn/gamma", "shape": [192], "dtype": "float32"}, {"name": "conv_dw_6_bn/beta", "shape": [192], "dtype": "float32"}, {"name": "conv_dw_6_bn/moving_mean", "shape": [192], "dtype": "float32"}, {"name": "conv_dw_6_bn/moving_variance", "shape": [192], "dtype": "float32"}]}, {"paths": ["group33-shard1of1"], "weights": [{"name": "conv_dw_7/depthwise_kernel", "shape": [3, 3, 192, 1], "dtype": "float32"}]}, {"paths": ["group34-shard1of1"], "weights": [{"name": "conv_dw_7_bn/gamma", "shape": [192], "dtype": "float32"}, {"name": "conv_dw_7_bn/beta", "shape": [192], "dtype": "float32"}, {"name": "conv_dw_7_bn/moving_mean", "shape": [192], "dtype": "float32"}, {"name": "conv_dw_7_bn/moving_variance", "shape": [192], "dtype": "float32"}]}, {"paths": ["group35-shard1of1"], "weights": [{"name": "conv_dw_8/depthwise_kernel", "shape": [3, 3, 384, 1], "dtype": "float32"}]}, {"paths": ["group36-shard1of1"], "weights": [{"name": "conv_dw_8_bn/gamma", "shape": [384], "dtype": "float32"}, {"name": "conv_dw_8_bn/beta", "shape": [384], "dtype": "float32"}, {"name": "conv_dw_8_bn/moving_mean", "shape": [384], "dtype": "float32"}, {"name": "conv_dw_8_bn/moving_variance", "shape": [384], "dtype": "float32"}]}, {"paths": ["group37-shard1of1"], "weights": [{"name": "conv_dw_9/depthwise_kernel", "shape": [3, 3, 384, 1], "dtype": "float32"}]}, {"paths": ["group38-shard1of1"], "weights": [{"name": "conv_dw_9_bn/gamma", "shape": [384], "dtype": "float32"}, {"name": "conv_dw_9_bn/beta", "shape": [384], "dtype": "float32"}, {"name": "conv_dw_9_bn/moving_mean", "shape": [384], "dtype": "float32"}, {"name": "conv_dw_9_bn/moving_variance", "shape": [384], "dtype": "float32"}]}, {"paths": ["group39-shard1of1"], "weights": [{"name": "conv_expand_10/kernel", "shape": [1, 1, 64, 384], "dtype": "float32"}]}, {"paths": ["group40-shard1of1"], "weights": [{"name": "conv_expand_10_bn/gamma", "shape": [384], "dtype": "float32"}, {"name": "conv_expand_10_bn/beta", "shape": [384], "dtype": "float32"}, {"name": "conv_expand_10_bn/moving_mean", "shape": [384], "dtype": "float32"}, {"name": "conv_expand_10_bn/moving_variance", "shape": [384], "dtype": "float32"}]}, {"paths": ["group41-shard1of1"], "weights": [{"name": "conv_expand_11/kernel", "shape": [1, 1, 64, 384], "dtype": "float32"}]}, {"paths": ["group42-shard1of1"], "weights": [{"name": "conv_expand_11_bn/gamma", "shape": [384], "dtype": "float32"}, {"name": "conv_expand_11_bn/beta", "shape": [384], "dtype": "float32"}, {"name": "conv_expand_11_bn/moving_mean", "shape": [384], "dtype": "float32"}, {"name": "conv_expand_11_bn/moving_variance", "shape": [384], "dtype": "float32"}]}, {"paths": ["group43-shard1of1"], "weights": [{"name": "conv_expand_12/kernel", "shape": [1, 1, 96, 576], "dtype": "float32"}]}, {"paths": ["group44-shard1of1"], "weights": [{"name": "conv_expand_12_bn/gamma", "shape": [576], "dtype": "float32"}, {"name": "conv_expand_12_bn/beta", "shape": [576], "dtype": "float32"}, {"name": "conv_expand_12_bn/moving_mean", "shape": [576], "dtype": "float32"}, {"name": "conv_expand_12_bn/moving_variance", "shape": [576], "dtype": "float32"}]}, {"paths": ["group45-shard1of1"], "weights": [{"name": "conv_expand_13/kernel", "shape": [1, 1, 96, 576], "dtype": "float32"}]}, {"paths": ["group46-shard1of1"], "weights": [{"name": "conv_expand_13_bn/gamma", "shape": [576], "dtype": "float32"}, {"name": "conv_expand_13_bn/beta", "shape": [576], "dtype": "float32"}, {"name": "conv_expand_13_bn/moving_mean", "shape": [576], "dtype": "float32"}, {"name": "conv_expand_13_bn/moving_variance", "shape": [576], "dtype": "float32"}]}, {"paths": ["group47-shard1of1"], "weights": [{"name": "conv_expand_14/kernel", "shape": [1, 1, 96, 576], "dtype": "float32"}]}, {"paths": ["group48-shard1of1"], "weights": [{"name": "conv_expand_14_bn/gamma", "shape": [576], "dtype": "float32"}, {"name": "conv_expand_14_bn/beta", "shape": [576], "dtype": "float32"}, {"name": "conv_expand_14_bn/moving_mean", "shape": [576], "dtype": "float32"}, {"name": "conv_expand_14_bn/moving_variance", "shape": [576], "dtype": "float32"}]}, {"paths": ["group49-shard1of1"], "weights": [{"name": "conv_expand_15/kernel", "shape": [1, 1, 160, 960], "dtype": "float32"}]}, {"paths": ["group50-shard1of1"], "weights": [{"name": "conv_expand_15_bn/gamma", "shape": [960], "dtype": "float32"}, {"name": "conv_expand_15_bn/beta", "shape": [960], "dtype": "float32"}, {"name": "conv_expand_15_bn/moving_mean", "shape": [960], "dtype": "float32"}, {"name": "conv_expand_15_bn/moving_variance", "shape": [960], "dtype": "float32"}]}, {"paths": ["group51-shard1of1"], "weights": [{"name": "conv_expand_16/kernel", "shape": [1, 1, 160, 960], "dtype": "float32"}]}, {"paths": ["group52-shard1of1"], "weights": [{"name": "conv_expand_16_bn/gamma", "shape": [960], "dtype": "float32"}, {"name": "conv_expand_16_bn/beta", "shape": [960], "dtype": "float32"}, {"name": "conv_expand_16_bn/moving_mean", "shape": [960], "dtype": "float32"}, {"name": "conv_expand_16_bn/moving_variance", "shape": [960], "dtype": "float32"}]}, {"paths": ["group53-shard1of1"], "weights": [{"name": "conv_expand_17/kernel", "shape": [1, 1, 160, 960], "dtype": "float32"}]}, {"paths": ["group54-shard1of1"], "weights": [{"name": "conv_expand_17_bn/gamma", "shape": [960], "dtype": "float32"}, {"name": "conv_expand_17_bn/beta", "shape": [960], "dtype": "float32"}, {"name": "conv_expand_17_bn/moving_mean", "shape": [960], "dtype": "float32"}, {"name": "conv_expand_17_bn/moving_variance", "shape": [960], "dtype": "float32"}]}, {"paths": ["group55-shard1of1"], "weights": [{"name": "conv_expand_2/kernel", "shape": [1, 1, 16, 96], "dtype": "float32"}]}, {"paths": ["group56-shard1of1"], "weights": [{"name": "conv_expand_2_bn/gamma", "shape": [96], "dtype": "float32"}, {"name": "conv_expand_2_bn/beta", "shape": [96], "dtype": "float32"}, {"name": "conv_expand_2_bn/moving_mean", "shape": [96], "dtype": "float32"}, {"name": "conv_expand_2_bn/moving_variance", "shape": [96], "dtype": "float32"}]}, {"paths": ["group57-shard1of1"], "weights": [{"name": "conv_expand_3/kernel", "shape": [1, 1, 24, 144], "dtype": "float32"}]}, {"paths": ["group58-shard1of1"], "weights": [{"name": "conv_expand_3_bn/gamma", "shape": [144], "dtype": "float32"}, {"name": "conv_expand_3_bn/beta", "shape": [144], "dtype": "float32"}, {"name": "conv_expand_3_bn/moving_mean", "shape": [144], "dtype": "float32"}, {"name": "conv_expand_3_bn/moving_variance", "shape": [144], "dtype": "float32"}]}, {"paths": ["group59-shard1of1"], "weights": [{"name": "conv_expand_4/kernel", "shape": [1, 1, 24, 144], "dtype": "float32"}]}, {"paths": ["group60-shard1of1"], "weights": [{"name": "conv_expand_4_bn/gamma", "shape": [144], "dtype": "float32"}, {"name": "conv_expand_4_bn/beta", "shape": [144], "dtype": "float32"}, {"name": "conv_expand_4_bn/moving_mean", "shape": [144], "dtype": "float32"}, {"name": "conv_expand_4_bn/moving_variance", "shape": [144], "dtype": "float32"}]}, {"paths": ["group61-shard1of1"], "weights": [{"name": "conv_expand_5/kernel", "shape": [1, 1, 32, 192], "dtype": "float32"}]}, {"paths": ["group62-shard1of1"], "weights": [{"name": "conv_expand_5_bn/gamma", "shape": [192], "dtype": "float32"}, {"name": "conv_expand_5_bn/beta", "shape": [192], "dtype": "float32"}, {"name": "conv_expand_5_bn/moving_mean", "shape": [192], "dtype": "float32"}, {"name": "conv_expand_5_bn/moving_variance", "shape": [192], "dtype": "float32"}]}, {"paths": ["group63-shard1of1"], "weights": [{"name": "conv_expand_6/kernel", "shape": [1, 1, 32, 192], "dtype": "float32"}]}, {"paths": ["group64-shard1of1"], "weights": [{"name": "conv_expand_6_bn/gamma", "shape": [192], "dtype": "float32"}, {"name": "conv_expand_6_bn/beta", "shape": [192], "dtype": "float32"}, {"name": "conv_expand_6_bn/moving_mean", "shape": [192], "dtype": "float32"}, {"name": "conv_expand_6_bn/moving_variance", "shape": [192], "dtype": "float32"}]}, {"paths": ["group65-shard1of1"], "weights": [{"name": "conv_expand_7/kernel", "shape": [1, 1, 32, 192], "dtype": "float32"}]}, {"paths": ["group66-shard1of1"], "weights": [{"name": "conv_expand_7_bn/gamma", "shape": [192], "dtype": "float32"}, {"name": "conv_expand_7_bn/beta", "shape": [192], "dtype": "float32"}, {"name": "conv_expand_7_bn/moving_mean", "shape": [192], "dtype": "float32"}, {"name": "conv_expand_7_bn/moving_variance", "shape": [192], "dtype": "float32"}]}, {"paths": ["group67-shard1of1"], "weights": [{"name": "conv_expand_8/kernel", "shape": [1, 1, 64, 384], "dtype": "float32"}]}, {"paths": ["group68-shard1of1"], "weights": [{"name": "conv_expand_8_bn/gamma", "shape": [384], "dtype": "float32"}, {"name": "conv_expand_8_bn/beta", "shape": [384], "dtype": "float32"}, {"name": "conv_expand_8_bn/moving_mean", "shape": [384], "dtype": "float32"}, {"name": "conv_expand_8_bn/moving_variance", "shape": [384], "dtype": "float32"}]}, {"paths": ["group69-shard1of1"], "weights": [{"name": "conv_expand_9/kernel", "shape": [1, 1, 64, 384], "dtype": "float32"}]}, {"paths": ["group70-shard1of1"], "weights": [{"name": "conv_expand_9_bn/gamma", "shape": [384], "dtype": "float32"}, {"name": "conv_expand_9_bn/beta", "shape": [384], "dtype": "float32"}, {"name": "conv_expand_9_bn/moving_mean", "shape": [384], "dtype": "float32"}, {"name": "conv_expand_9_bn/moving_variance", "shape": [384], "dtype": "float32"}]}, {"paths": ["group71-shard1of1"], "weights": [{"name": "conv_preds/kernel", "shape": [1, 1, 1280, 7], "dtype": "float32"}, {"name": "conv_preds/bias", "shape": [7], "dtype": "float32"}]}, {"paths": ["group72-shard1of1"], "weights": [{"name": "conv_pw_1/kernel", "shape": [1, 1, 32, 16], "dtype": "float32"}]}, {"paths": ["group73-shard1of1"], "weights": [{"name": "conv_pw_10/kernel", "shape": [1, 1, 384, 64], "dtype": "float32"}]}, {"paths": ["group74-shard1of1"], "weights": [{"name": "conv_pw_10_bn/gamma", "shape": [64], "dtype": "float32"}, {"name": "conv_pw_10_bn/beta", "shape": [64], "dtype": "float32"}, {"name": "conv_pw_10_bn/moving_mean", "shape": [64], "dtype": "float32"}, {"name": "conv_pw_10_bn/moving_variance", "shape": [64], "dtype": "float32"}]}, {"paths": ["group75-shard1of1"], "weights": [{"name": "conv_pw_11/kernel", "shape": [1, 1, 384, 96], "dtype": "float32"}]}, {"paths": ["group76-shard1of1"], "weights": [{"name": "conv_pw_11_bn/gamma", "shape": [96], "dtype": "float32"}, {"name": "conv_pw_11_bn/beta", "shape": [96], "dtype": "float32"}, {"name": "conv_pw_11_bn/moving_mean", "shape": [96], "dtype": "float32"}, {"name": "conv_pw_11_bn/moving_variance", "shape": [96], "dtype": "float32"}]}, {"paths": ["group77-shard1of1"], "weights": [{"name": "conv_pw_12/kernel", "shape": [1, 1, 576, 96], "dtype": "float32"}]}, {"paths": ["group78-shard1of1"], "weights": [{"name": "conv_pw_12_bn/gamma", "shape": [96], "dtype": "float32"}, {"name": "conv_pw_12_bn/beta", "shape": [96], "dtype": "float32"}, {"name": "conv_pw_12_bn/moving_mean", "shape": [96], "dtype": "float32"}, {"name": "conv_pw_12_bn/moving_variance", "shape": [96], "dtype": "float32"}]}, {"paths": ["group79-shard1of1"], "weights": [{"name": "conv_pw_13/kernel", "shape": [1, 1, 576, 96], "dtype": "float32"}]}, {"paths": ["group80-shard1of1"], "weights": [{"name": "conv_pw_13_bn/gamma", "shape": [96], "dtype": "float32"}, {"name": "conv_pw_13_bn/beta", "shape": [96], "dtype": "float32"}, {"name": "conv_pw_13_bn/moving_mean", "shape": [96], "dtype": "float32"}, {"name": "conv_pw_13_bn/moving_variance", "shape": [96], "dtype": "float32"}]}, {"paths": ["group81-shard1of1"], "weights": [{"name": "conv_pw_14/kernel", "shape": [1, 1, 576, 160], "dtype": "float32"}]}, {"paths": ["group82-shard1of1"], "weights": [{"name": "conv_pw_14_bn/gamma", "shape": [160], "dtype": "float32"}, {"name": "conv_pw_14_bn/beta", "shape": [160], "dtype": "float32"}, {"name": "conv_pw_14_bn/moving_mean", "shape": [160], "dtype": "float32"}, {"name": "conv_pw_14_bn/moving_variance", "shape": [160], "dtype": "float32"}]}, {"paths": ["group83-shard1of1"], "weights": [{"name": "conv_pw_15/kernel", "shape": [1, 1, 960, 160], "dtype": "float32"}]}, {"paths": ["group84-shard1of1"], "weights": [{"name": "conv_pw_15_bn/gamma", "shape": [160], "dtype": "float32"}, {"name": "conv_pw_15_bn/beta", "shape": [160], "dtype": "float32"}, {"name": "conv_pw_15_bn/moving_mean", "shape": [160], "dtype": "float32"}, {"name": "conv_pw_15_bn/moving_variance", "shape": [160], "dtype": "float32"}]}, {"paths": ["group85-shard1of1"], "weights": [{"name": "conv_pw_16/kernel", "shape": [1, 1, 960, 160], "dtype": "float32"}]}, {"paths": ["group86-shard1of1"], "weights": [{"name": "conv_pw_16_bn/gamma", "shape": [160], "dtype": "float32"}, {"name": "conv_pw_16_bn/beta", "shape": [160], "dtype": "float32"}, {"name": "conv_pw_16_bn/moving_mean", "shape": [160], "dtype": "float32"}, {"name": "conv_pw_16_bn/moving_variance", "shape": [160], "dtype": "float32"}]}, {"paths": ["group87-shard1of1"], "weights": [{"name": "conv_pw_17/kernel", "shape": [1, 1, 960, 320], "dtype": "float32"}]}, {"paths": ["group88-shard1of1"], "weights": [{"name": "conv_pw_17_bn/gamma", "shape": [320], "dtype": "float32"}, {"name": "conv_pw_17_bn/beta", "shape": [320], "dtype": "float32"}, {"name": "conv_pw_17_bn/moving_mean", "shape": [320], "dtype": "float32"}, {"name": "conv_pw_17_bn/moving_variance", "shape": [320], "dtype": "float32"}]}, {"paths": ["group89-shard1of1"], "weights": [{"name": "conv_pw_1_bn/gamma", "shape": [16], "dtype": "float32"}, {"name": "conv_pw_1_bn/beta", "shape": [16], "dtype": "float32"}, {"name": "conv_pw_1_bn/moving_mean", "shape": [16], "dtype": "float32"}, {"name": "conv_pw_1_bn/moving_variance", "shape": [16], "dtype": "float32"}]}, {"paths": ["group90-shard1of1"], "weights": [{"name": "conv_pw_2/kernel", "shape": [1, 1, 96, 24], "dtype": "float32"}]}, {"paths": ["group91-shard1of1"], "weights": [{"name": "conv_pw_2_bn/gamma", "shape": [24], "dtype": "float32"}, {"name": "conv_pw_2_bn/beta", "shape": [24], "dtype": "float32"}, {"name": "conv_pw_2_bn/moving_mean", "shape": [24], "dtype": "float32"}, {"name": "conv_pw_2_bn/moving_variance", "shape": [24], "dtype": "float32"}]}, {"paths": ["group92-shard1of1"], "weights": [{"name": "conv_pw_3/kernel", "shape": [1, 1, 144, 24], "dtype": "float32"}]}, {"paths": ["group93-shard1of1"], "weights": [{"name": "conv_pw_3_bn/gamma", "shape": [24], "dtype": "float32"}, {"name": "conv_pw_3_bn/beta", "shape": [24], "dtype": "float32"}, {"name": "conv_pw_3_bn/moving_mean", "shape": [24], "dtype": "float32"}, {"name": "conv_pw_3_bn/moving_variance", "shape": [24], "dtype": "float32"}]}, {"paths": ["group94-shard1of1"], "weights": [{"name": "conv_pw_4/kernel", "shape": [1, 1, 144, 32], "dtype": "float32"}]}, {"paths": ["group95-shard1of1"], "weights": [{"name": "conv_pw_4_bn/gamma", "shape": [32], "dtype": "float32"}, {"name": "conv_pw_4_bn/beta", "shape": [32], "dtype": "float32"}, {"name": "conv_pw_4_bn/moving_mean", "shape": [32], "dtype": "float32"}, {"name": "conv_pw_4_bn/moving_variance", "shape": [32], "dtype": "float32"}]}, {"paths": ["group96-shard1of1"], "weights": [{"name": "conv_pw_5/kernel", "shape": [1, 1, 192, 32], "dtype": "float32"}]}, {"paths": ["group97-shard1of1"], "weights": [{"name": "conv_pw_5_bn/gamma", "shape": [32], "dtype": "float32"}, {"name": "conv_pw_5_bn/beta", "shape": [32], "dtype": "float32"}, {"name": "conv_pw_5_bn/moving_mean", "shape": [32], "dtype": "float32"}, {"name": "conv_pw_5_bn/moving_variance", "shape": [32], "dtype": "float32"}]}, {"paths": ["group98-shard1of1"], "weights": [{"name": "conv_pw_6/kernel", "shape": [1, 1, 192, 32], "dtype": "float32"}]}, {"paths": ["group99-shard1of1"], "weights": [{"name": "conv_pw_6_bn/gamma", "shape": [32], "dtype": "float32"}, {"name": "conv_pw_6_bn/beta", "shape": [32], "dtype": "float32"}, {"name": "conv_pw_6_bn/moving_mean", "shape": [32], "dtype": "float32"}, {"name": "conv_pw_6_bn/moving_variance", "shape": [32], "dtype": "float32"}]}, {"paths": ["group100-shard1of1"], "weights": [{"name": "conv_pw_7/kernel", "shape": [1, 1, 192, 64], "dtype": "float32"}]}, {"paths": ["group101-shard1of1"], "weights": [{"name": "conv_pw_7_bn/gamma", "shape": [64], "dtype": "float32"}, {"name": "conv_pw_7_bn/beta", "shape": [64], "dtype": "float32"}, {"name": "conv_pw_7_bn/moving_mean", "shape": [64], "dtype": "float32"}, {"name": "conv_pw_7_bn/moving_variance", "shape": [64], "dtype": "float32"}]}, {"paths": ["group102-shard1of1"], "weights": [{"name": "conv_pw_8/kernel", "shape": [1, 1, 384, 64], "dtype": "float32"}]}, {"paths": ["group103-shard1of1"], "weights": [{"name": "conv_pw_8_bn/gamma", "shape": [64], "dtype": "float32"}, {"name": "conv_pw_8_bn/beta", "shape": [64], "dtype": "float32"}, {"name": "conv_pw_8_bn/moving_mean", "shape": [64], "dtype": "float32"}, {"name": "conv_pw_8_bn/moving_variance", "shape": [64], "dtype": "float32"}]}, {"paths": ["group104-shard1of1"], "weights": [{"name": "conv_pw_9/kernel", "shape": [1, 1, 384, 64], "dtype": "float32"}]}, {"paths": ["group105-shard1of1"], "weights": [{"name": "conv_pw_9_bn/gamma", "shape": [64], "dtype": "float32"}, {"name": "conv_pw_9_bn/beta", "shape": [64], "dtype": "float32"}, {"name": "conv_pw_9_bn/moving_mean", "shape": [64], "dtype": "float32"}, {"name": "conv_pw_9_bn/moving_variance", "shape": [64], "dtype": "float32"}]}]}